models/mlp_model.pth (torch, 360344 bytes, 19 tensors)

model.0.weight f4 [256, 175]
0	0x3e26bf63	0.16283946
1	0xbe134b9e	-0.14384314
2	0xbdf59c49	-0.119927
3	0x3e1e33f1	0.15449502
4	0xbc1b7a0f	-0.00948955
5	0xbdd6381f	-0.10459923
6	0xbcd52b37	-0.026021583
7	0xbd8ac4d7	-0.067758255
8	0x3b1b83e9	0.0023729748
9	0x3e14610f	0.1449015
10	0xbdd1fe42	-0.10253574
11	0xbd806e17	-0.06270998
12	0x3e4025ee	0.18764469
13	0x3db4f447	0.08835655
14	0x3ec43b68	0.38326573
15	0x3ecbbbae	0.39791626
16	0x3d570b5a	0.05250106
17	0x3dc8b990	0.09801018
18	0xbc422633	-0.011849928
19	0xbe4dfa9a	-0.20115128
20	0x3d895607	0.067058615
21	0xbd25f016	-0.040512167
22	0xbd980243	-0.074223064
23	0x3d4cfc40	0.05004525
24	0x3d23b1d2	0.039964505
25	0x3e660292	0.22461918
26	0xbe0dc57f	-0.1384487
27	0xbd65abec	-0.05607216
28	0x3d73158d	0.059346724
29	0xbce9843a	-0.028505433
30	0x3ded0db1	0.11574877
31	0xbd3a2015	-0.045440752
32	0x3cacf195	0.021111289
33	0xbcbe49f9	-0.023228632
34	0x3d064c23	0.032787453
35	0x3dec0550	0.11524451
36	0x3da793ae	0.081824645
37	0x3d02d413	0.03194053
38	0x3dc1d169	0.0946377
39	0x3b45b1c2	0.0030165766
40	0xbd5bae8c	-0.053633258
41	0x3dee9885	0.116501845
42	0x3b717d7c	0.0036848476
43	0x3c31e474	0.01085769
44	0xbd865258	-0.065586746
45	0xbd0daa5f	-0.034586307
46	0x3da67d24	0.081293374
47	0x3df4b844	0.119492084
48	0xbe72c254	-0.23706943
49	0x3c7b12ea	0.015324334
50	0x3d558406	0.05212786
51	0xbc579a6b	-0.013159375
52	0xbc85f7c5	-0.016353497
53	0xbdf1a9b4	-0.117999464
54	0xbd8b9092	-0.06814684
55	0x3db9739e	0.09055255
56	0x3d9326d7	0.071851425
57	0xbd0e81dc	-0.034791812
58	0xbc06af01	-0.008220435
59	0x3d8b6765	0.0680683
60	0xbe7f1de8	-0.24913752
61	0xbcda3ad4	-0.02663938
62	0xbe2299c2	-0.15878966
63	0xbcb40aee	-0.021977868
64	0x3da9a49e	0.08283351
65	0xbcc2b040	-0.023765683
66	0x3cfb1428	0.03064926
67	0x3dd86ea7	0.1056798
68	0xbdbbd9ce	-0.09172402
69	0x3e516995	0.20450433
70	0x3d25fd00	0.040524483
71	0x3e90b40b	0.28262362
72	0xbe147efc	-0.14501566
73	0x3e082a35	0.1329735
74	0x3d688001	0.0567627
75	0x3d9fa142	0.07794429
76	0x3c81bc7a	0.015836943
77	0xbd038dab	-0.032117527
78	0x3d0cdd41	0.03439069
79	0xbd5b39ca	-0.05352191
80	0xbdc58399	-0.09644241
81	0xbd76b802	-0.060234077
82	0xbeafa340	-0.34304237
83	0xbe8d2c54	-0.27572882
84	0x3e78fb96	0.24314722
85	0x3de4212e	0.11139141
86	0xbdeaf8ef	-0.114732616
87	0xbf0408da	-0.51576006
88	0xbb2d8ee5	-0.0026482877
89	0x3e857580	0.26066208
90	0xbeb21060	-0.34778118
91	0xbd3e7fe5	-0.04650869
92	0x3e9ef50d	0.31046334
93	0xbdf1163a	-0.117718175
94	0x3e49eaa0	0.19718409
95	0xbe8d0594	-0.27543318
96	0xbe4a5fc0	-0.19763088
97	0xbe3e7325	-0.18598612
98	0xbcdaf3e9	-0.026727634
99	0xbb891a78	-0.0041840635
100	0xbe832d7e	-0.25620645
101	0x3ddc9fef	0.107726924
102	0x3bb669e2	0.0055668214
103	0xbe906bea	-0.28207332
104	0x3e3cda8f	0.18442748
105	0x3de47540	0.11155176
106	0xbe82a4e6	-0.25516433
107	0x3cfdeb0a	0.030995864
108	0xbca6ddde	-0.020369466
109	0x3e0bdf93	0.13659506
110	0xbdb5c128	-0.08874732
111	0xbc9978f5	-0.018734435
112	0xbee94360	-0.45559216
113	0x3da03a38	0.07823604
114	0xbf046097	-0.51709884
115	0x3de07d8a	0.10961445
116	0xbb920965	-0.0044566863
117	0x3ea1bee9	0.31590965
118	0xbd8d176f	-0.06889235
119	0xbee72765	-0.45147243
120	0xbe36a28a	-0.17835441
121	0x3e3a1e1d	0.1817555
122	0x3ce90aa2	0.028447453
123	0xbc87adbd	-0.016562337
124	0x3e7fd305	0.24982841
125	0x3ecd1d32	0.40061337
126	0x3e661875	0.22470267
127	0x3dd543d5	0.104133286
128	0x3dead81a	0.11466999
129	0x3d039c59	0.032131527
130	0xbd063ae1	-0.032770995
131	0x3e700354	0.2343877
132	0x3e385098	0.17999494
133	0x3d0bf52d	0.034169365
134	0xbe677fbf	-0.22607325
135	0xbea1f45f	-0.31631753
136	0x3e91067c	0.2832526
137	0xbdec02f9	-0.115240045
138	0xbe38375c	-0.17989868
139	0xbe26af5d	-0.16277833
140	0xbcd9192c	-0.02650126
141	0xbe9d1297	-0.30678245
142	0xbe96aad3	-0.29427204
143	0xbe9214d7	-0.28531525
144	0xbdd952c0	-0.106114864
145	0x3d9f7c75	0.0778741
146	0xbe12efa0	-0.14349222
147	0x3e627e51	0.22118498
148	0x3e39fafb	0.18162148
149	0x3cbada14	0.022809066
150	0xbdc7ea02	-0.0976143
151	0xbe68b275	-0.22724326
152	0x3cc95ad2	0.02457944
153	0xbdee1e08	-0.11626822
154	0x3e1d53d5	0.1536401
155	0xbddac42b	-0.10681947
156	0xbeaa141e	-0.33218473
157	0x3e20a0e3	0.15686373
158	0xbe4f091b	-0.20218317
159	0xbe8a16c1	-0.26970485
160	0x3e7abe01	0.24486543
161	0xbe4f99a3	-0.20273452
162	0x3d892bf6	0.06697838
163	0xbe0b828c	-0.13624018
164	0x3c85508b	0.016273757
165	0xbd8abc4e	-0.067741975
166	0x3db5ece7	0.08883076
167	0x3e408633	0.18801193
168	0x3db225f0	0.08698642
169	0xbc1bce40	-0.009509623
170	0xbebd8ae6	-0.37020034
171	0x3e9c2ce6	0.30503005
172	0xbe71b25a	-0.23603192
173	0x3e6c674c	0.2308628
174	0x3dbc9496	0.09208028
175	0xbd93e55b	-0.072214805
176	0xbc3a5dd9	-0.011374914
177	0xbe17976f	-0.14803861
178	0xbe0a742b	-0.13520877
179	0xbd13c742	-0.0360787
180	0x3e003279	0.12519254
181	0x3d58e6f7	0.05295464
182	0xbcf3bc15	-0.02975277
183	0xbda47a5e	-0.08031152
184	0xbc84cec7	-0.01621188
185	0xbde7bbfb	-0.11315151
186	0x3ce9cdd5	0.028540531
187	0x3d3cd6df	0.046103355
188	0x3cca5114	0.024696864
189	0x3ebe2ece	0.37145084
190	0x3db3d9a3	0.08781745
191	0x3dc0eab2	0.094197646
192	0xbe86f317	-0.26357338
193	0x3d54b42a	0.05192963
194	0xbc383e4f	-0.011245324
195	0xbe87274a	-0.26397163
196	0x3e38c26a	0.18042913
197	0x3bf1e6f7	0.0073822695
198	0x3cc201fc	0.023682587
199	0x3e058f39	0.13042916
200	0xbd867814	-0.06565872
201	0xbd050ac8	-0.032480985
202	0xbe8a310f	-0.26990554
203	0xbe0189a4	-0.12650162
204	0xbcef7abe	-0.029233333
205	0x3c81e5fe	0.01585674
206	0x3d930a5a	0.07179709
207	0x3d7f0782	0.06226302
208	0x3e1c552f	0.1526687
209	0xbcb70c14	-0.022344626
210	0xbd3ec0bd	-0.04657053
211	0xbd472a2b	-0.0486242
212	0x3ba1c75a	0.0049370946
213	0xbc0e22b3	-0.008675265
214	0x3eaf2d9c	0.34214485
215	0x3d2208f5	0.039559323
216	0xbeb01776	-0.343929
217	0xbd5a7f0a	-0.05334381
218	0xbe2ead79	-0.17058362
219	0xbc928c25	-0.017889092
220	0xbede8eee	-0.43468422
221	0x3d821753	0.06352105
222	0x3e4baebe	0.19890878
223	0xbd86d95c	-0.06584427
224	0x3e22367c	0.15841097
225	0xbdf7997f	-0.12089824
226	0xbdb8f69e	-0.090314135
227	0x3d85bcc9	0.065301485
228	0x3e03bea1	0.12865688
229	0xbd279521	-0.040913705
230	0x3e13428a	0.14380851
231	0xbd1763f8	-0.036960572
232	0xbe1658c1	-0.14682294
233	0x3e4c9012	0.19976833
234	0xbdf28686	-0.118420646
235	0x3c5fc28f	0.013657226
236	0x3e332b93	0.17497091
237	0x3e53aed6	0.20672163
238	0xbe3f4ede	-0.18682429
239	0x3d57c5cd	0.052678872
240	0xbe109d67	-0.14122544
241	0xbd85c531	-0.06531752
242	0x3e7f3538	0.24922645
243	0x3e373797	0.178923
244	0xbd37d947	-0.044884946
245	0xbe3ad226	-0.18244228
246	0xbdf5f27b	-0.1200914
247	0xbe086d3b	-0.13322918
248	0x3e82685a	0.2547024
249	0x3d252650	0.04031974
250	0x3c332ad5	0.010935505
251	0x3e20c5d2	0.15700462
252	0xbdb6fb32	-0.089346305
253	0x3e5060fd	0.20349498
254	0x3e76c515	0.24098618
255	0x3e03adda	0.12859288

model.0.bias f4 [256]
0	0x3d5e53d4	0.054279163
1	0x3d0b1492	0.033955164
2	0x3aaba172	0.0013094379
3	0x3d5e06c5	0.054205675
4	0x3ce9faa3	0.028561896
5	0x3d96caae	0.07362877
6	0xbd818098	-0.063233554
7	0x3d8c370c	0.06846437
8	0x3bf516f7	0.0074795443
9	0xbc182e89	-0.009288439
10	0xbd947c77	-0.07250302
11	0xbc70ddbb	-0.014701302
12	0x3d86b052	0.06576599
13	0x3d77c1a0	0.06048739
14	0x3d111bb4	0.03542681
15	0x39edd665	0.000453639
16	0x3d35ddf3	0.04440112
17	0x3d3c68ab	0.045998257
18	0xbd94e752	-0.07270683
19	0x3d7b06d2	0.0612858
20	0xbd63a1dc	-0.055574283
21	0xbd40d56a	-0.047078528
22	0x3d162ef6	0.03666588
23	0xbcc2f1da	-0.023796964
24	0xbd0961f3	-0.033540677
25	0x3d8dbbbf	0.06920575
26	0x3c948e2f	0.018134205
27	0x3d3625b1	0.04446954
28	0x3d3e0c2c	0.046398327
29	0x3b8e789f	0.0043478752
30	0xbd5dcdff	-0.05415153
31	0xbd8f0e21	-0.06985117
32	0x3a72626f	0.0009246235
33	0xbd4f2f3a	-0.050582148
34	0xbd394d31	-0.04523963
35	0x3d6c5ee4	0.057707682
36	0xbd5c7bd5	-0.053829033
37	0x3d43ab0a	0.047770537
38	0x3cf13ff3	0.029449439
39	0x3d18ed95	0.03733595
40	0x3d4dc6fa	0.050238587
41	0xbd157cc5	-0.036495943
42	0xbc04927f	-0.008091568
43	0xbd03bd6a	-0.03216306
44	0xbca4b639	-0.020106422
45	0xbd6d588f	-0.057945784
46	0xbd1785aa	-0.036992706
47	0xbd5283ff	-0.051395413
48	0xbd93e32c	-0.07221064
49	0xbd1e01e9	-0.03857604
50	0x3d844545	0.064585246
51	0x3d8ff829	0.07029755
52	0x3c08f14c	0.008358311
53	0xbd65fe1e	-0.05615055
54	0x3cab07b8	0.020877704
55	0xbd793c5a	-0.06084857
56	0xbcfed2ab	-0.031106314
57	0x3d8d0f04	0.0688763
58	0xbd1180a4	-0.035523072
59	0xbcd6591d	-0.02616554
60	0x3d00834a	0.031375207
61	0xbd45f2e4	-0.04832734
62	0xbbff097b	-0.0077831126
63	0x3d1a1e54	0.03762658
64	0xbd70e542	-0.058812387
65	0x3d8bbbea	0.06822951
66	0x3d9296db	0.0715768
67	0xbc424c3f	-0.011858999
68	0xbd673398	-0.056445688
69	0x3c9d2e2d	0.019187057
70	0xbcbc5641	-0.022990348
71	0x3d0e882c	0.034797832
72	0xbb8b2f9d	-0.0042476193
73	0x3c81f601	0.015864374
74	0xbd5d2a20	-0.05399525
75	0x3c99b2f4	0.01876209
76	0xbd92a6dd	-0.07160733
77	0xbd0df38f	-0.034656104
78	0xbd557985	-0.052117843
79	0xbb9818af	-0.0046416144
80	0x3d93279c	0.07185289
81	0xbd51716e	-0.051133566
82	0x3cd49b18	0.02595286
83	0xbd25c911	-0.040474955
84	0x3d231f52	0.03982479
85	0x3d705dc0	0.058683157
86	0xbc965cca	-0.018354792
87	0xbd5c5415	-0.053791124
88	0xbce2bfed	-0.027679408
89	0x3d2ade34	0.041715816
90	0x3d0eafd1	0.03483564
91	0xbd0874b7	-0.033314433
92	0x3af3d8da	0.0018604056
93	0x3d37e074	0.04489179
94	0x3d0e841d	0.03479396
95	0xbd6d855d	-0.057988513
96	0xbd499efb	-0.04922388
97	0xbb6929c1	-0.0035577866
98	0x3d5d6cae	0.054058723
99	0x3d3ed869	0.046593104
100	0xbd238a2d	-0.039926697
101	0xbcb2e18d	-0.021836067
102	0xbd70e520	-0.05881226
103	0x3c4ca4c8	0.012490459
104	0xbd230f51	-0.03980953
105	0xbd878863	-0.066178106
106	0x3b0c05d7	0.0021365786
107	0x3c9df05c	0.019279651
108	0x3d275a6b	0.040857714
109	0xbc3f704f	-0.011684491
110	0xbc5ed4e5	-0.013600563
111	0x3d3ea47d	0.046543587
112	0x3caa37d9	0.020778583
113	0x3cdacc65	0.026708791
114	0xbc557c5d	-0.013030139
115	0x3b0fb42e	0.0021927464
116	0xbd1f2da4	-0.038861886
117	0x3ced7227	0.028985096
118	0x3d567c2c	0.052364513
119	0x3caa38f2	0.020779107
120	0xbd941395	-0.072302975
121	0x3d215042	0.03938318
122	0xbd64d795	-0.055869658
123	0x3b964597	0.0045859325
124	0x3d86c5b5	0.065806784
125	0x3c7e6bc5	0.015528624
126	0x3d608aac	0.054819748
127	0xbcd9a5ee	-0.02656838
128	0xbc3fcd8d	-0.011706722
129	0xbd17a650	-0.037023842
130	0x3d93e56a	0.07221492
131	0xbd646639	-0.05576155
132	0x3c3c20b6	0.011482408
133	0xbbd3ce4a	-0.0064638006
134	0x3c3eef23	0.011653694
135	0x3b9926a4	0.004673796
136	0x3d39a91d	0.045327295
137	0xbce0ff5b	-0.027465513
138	0xbd34f4a2	-0.044178613
139	0xbba37f36	-0.00498953
140	0xbd2fc711	-0.042914454
141	0x3d4c5449	0.049885068
142	0x3d451695	0.04811724
143	0xbc501c53	-0.0127020655
144	0xbd413933	-0.04717369
145	0xbd5c4272	-0.053774305
146	0xbd4d9e76	-0.05019995
147	0xbd0c17a3	-0.03420223
148	0xbc9a4700	-0.018832684
149	0x3c8d1a66	0.017224502
150	0x3d8fa307	0.07013517
151	0x3d748644	0.05969836
152	0xbc32466a	-0.010881046
153	0x3d9135e9	0.07090361
154	0x3d93563b	0.071941815
155	0x3d07ce4a	0.033155717
156	0x3c1f8c5e	0.009738056
157	0x3d392a1f	0.045206185
158	0xbd2973ff	-0.041370388
159	0xbc99f347	-0.018792761
160	0x3c1f9db9	0.009742194
161	0x3d7cb41b	0.0616952
162	0xbd934f18	-0.0719282
163	0xbd55e68a	-0.052221812
164	0xbd8f7f82	-0.07006742
165	0x3cfe5e79	0.031050907
166	0xbd9a073c	-0.07520911
167	0xbd8fae35	-0.07015649
168	0x3d83c7b2	0.06434573
169	0x3c0980f5	0.008392562
170	0xbd4dc9d5	-0.05024131
171	0x3b48db8b	0.0030648436
172	0xbd18a0c9	-0.03726271
173	0xbbea3e66	-0.0071485518
174	0x3d4b06c8	0.049567014
175	0xbd896330	-0.06708372
176	0xbd97845a	-0.07398291
177	0x3d952012	0.072815076
178	0xbc906a25	-0.017628739
179	0xbd8d9ded	-0.069148876
180	0x3d379290	0.044817507
181	0xbd9840ef	-0.0743426
182	0x3d653310	0.0559569
183	0xbd8adc0a	-0.0678025
184	0xbd955281	-0.07291127
185	0xbd5e3aac	-0.054255173
186	0xbd12223d	-0.035677183
187	0x3c17dd75	0.009269108
188	0x3c201245	0.009769981
189	0xbd65cc40	-0.05610299
190	0x3d5bd641	0.053671125
191	0xbc401b92	-0.011725323
192	0xbd8fdb7e	-0.07024287
193	0xbccaafc1	-0.02474201
194	0xbd22825f	-0.039675113
195	0xbcdb49d4	-0.026768602
196	0x3d833586	0.06406693
197	0xbd9587a2	-0.073012605
198	0xbd934e88	-0.07192713
199	0x3c27072b	0.01019458
200	0xbcdc58ac	-0.02689775
201	0x3d25db0c	0.040492103
202	0xbd1fa792	-0.038978167
203	0x3cba1bfd	0.022718424
204	0x3d389268	0.0450615
205	0x3d6a1b65	0.05715503
206	0x3c5af69c	0.01336446
207	0x3ce591e4	0.028023668
208	0x3d8e1246	0.06937079
209	0x3bbfa196	0.00584812
210	0xbd3f9040	-0.046768427
211	0x3d22dbfd	0.03976058
212	0xbd3ce8c7	-0.04612043
213	0x3d930668	0.07178956
214	0xbd8ddf13	-0.06927314
215	0x3d99a1fa	0.07501598
216	0x3bef1b70	0.007296972
217	0x3d73be72	0.059507795
218	0x3d83ad7a	0.064295724
219	0xbd8337fd	-0.06407163
220	0x3c8c4b48	0.01712574
221	0x3d1f1eb5	0.038847644
222	0xbc67a759	-0.01413902
223	0x3d79e603	0.061010372
224	0xbd92c6b1	-0.07166804
225	0xbd298337	-0.0413849
226	0x3d11ecba	0.03562615
227	0xbd72da48	-0.0592902
228	0x3d18afe3	0.037277114
229	0xbcaae664	-0.020861812
230	0xbd3d702f	-0.046249565
231	0xbce3bdef	-0.027800528
232	0x3cd20aba	0.02563988
233	0xbcf31df4	-0.029677369
234	0x3c46f1c1	0.0121426
235	0x3d77c693	0.06049211
236	0xbca3c823	-0.019992894
237	0x3d8fdec0	0.07024908
238	0xbd39eaf2	-0.045390077
239	0x3c0e8994	0.008699793
240	0xbd122b90	-0.035686076
241	0xbd2a0a09	-0.041513477
242	0xbd701098	-0.058609575
243	0x3d868a81	0.06569386
244	0xbcd32c5a	-0.025777984
245	0xbd38370a	-0.044974364
246	0x3d613cfd	0.054989804
247	0x3d638f59	0.05555663
248	0x3d08330a	0.0332518
249	0xbd82b68c	-0.06382474
250	0xbcbb73e8	-0.022882417
251	0xbd089d2e	-0.033353023
252	0x3d6e2f66	0.05815067
253	0x3beb4708	0.0071800984
254	0x3c198cc4	0.00937194
255	0x3d8a17b5	0.06742803

model.1.weight f4 [256]
0	0x3f61ba56	0.8817495
1	0x3f7db156	0.9909872
2	0x3f772a40	0.96548843
3	0x3f64cebf	0.8937797
4	0x3f724f6f	0.94652456
5	0x3f637bd6	0.88860834
6	0x3f5c11ea	0.85964835
7	0x3f4d8641	0.8028298
8	0x3f6e6b65	0.9313262
9	0x3f89efdb	1.0776323
10	0x3f6185c4	0.88094735
11	0x3f86703d	1.0503002
12	0x3f606bff	0.8766479
13	0x3f67a1f1	0.9048148
14	0x3f3deb8d	0.74187547
15	0x3f7b19a2	0.9808599
16	0x3f7e762e	0.9939908
17	0x3f603f2e	0.87596405
18	0x3f531900	0.8246002
19	0x3f76526a	0.96219504
20	0x3f86c9d2	1.0530341
21	0x3f883b03	1.0643009
22	0x3f811c7c	1.0086818
23	0x3f475678	0.77866316
24	0x3f558e53	0.83420295
25	0x3f5a3ef2	0.85252297
26	0x3f477d34	0.7792542
27	0x3f8a1767	1.0788392
28	0x3f5f3a35	0.8719819
29	0x3f93d9f0	1.1550884
30	0x3f60233b	0.8755376
31	0x3f823bf0	1.0174541
32	0x3f77aaa8	0.96744776
33	0x3f7a198d	0.9769524
34	0x3f74a461	0.9556332
35	0x3f8d6d15	1.1048914
36	0x3f6aaca7	0.91669697
37	0x3f70b775	0.94029933
38	0x3f84e1ce	1.038141
39	0x3f868c1d	1.0511509
40	0x3f5e7a80	0.8690567
41	0x3f87319d	1.0562016
42	0x3f55d000	0.8352051
43	0x3f83aa44	1.0286336
44	0x3f803c7a	1.0018456
45	0x3f52a4e4	0.82282853
46	0x3f48c80c	0.7843025
47	0x3f858ac5	1.0432974
48	0x3f772937	0.96547264
49	0x3f7ba470	0.98297787
50	0x3f743a2c	0.95401263
51	0x3f877a69	1.0584232
52	0x3f8b34eb	1.0875524
53	0x3f6dffa4	0.929682
54	0x3f771240	0.9651222
55	0x3f911bcb	1.1336607
56	0x3f740c0f	0.953309
57	0x3f6ef875	0.93347865
58	0x3f49b24a	0.7878767
59	0x3f47c8d3	0.7804081
60	0x3f5f935c	0.8733423
61	0x3f6d60d7	0.9272589
62	0x3f4d4024	0.80175996
63	0x3f640213	0.89065665
64	0x3f71de28	0.9447961
65	0x3f76a718	0.96348715
66	0x3f71896b	0.9435031
67	0x3f612666	0.87949216
68	0x3f805c3d	1.0028149
69	0x3f90a0f4	1.1299119
70	0x3f4ab84c	0.79187465
71	0x3f6043be	0.87603366
72	0x3f507c1d	0.8143938
73	0x3f703e60	0.93845177
74	0x3f4beca8	0.79657984
75	0x3f461a41	0.7738381
76	0x3f7f8e3a	0.99826396
77	0x3f7ecc89	0.99530846
78	0x3f6e5c35	0.93109447
79	0x3f73013d	0.94923764
80	0x3f85c1a0	1.0449715
81	0x3f6b4f8f	0.9191827
82	0x3f55b2cb	0.8347594
83	0x3f7c5e5b	0.98581475
84	0x3f4ea192	0.80715287
85	0x3f663f72	0.8994056
86	0x3f367660	0.71274376
87	0x3f532f52	0.8249408
88	0x3f534ca6	0.8253883
89	0x3f495398	0.7864318
90	0x3f785913	0.97010916
91	0x3f669d1b	0.90083474
92	0x3f69ea81	0.9137345
93	0x3f6da522	0.928301
94	0x3f8906a1	1.0705148
95	0x3f54aaa8	0.830729
96	0x3f881f5e	1.0634573
97	0x3f89e5cc	1.0773253
98	0x3f9e2021	1.2353555
99	0x3f440cac	0.76581836
100	0x3f60e8de	0.8785533
101	0x3f44f554	0.7693684
102	0x3f71a121	0.9438649
103	0x3f65934c	0.8967788
104	0x3f70381c	0.93835616
105	0x3f768edf	0.96311754
106	0x3f814e13	1.0101951
107	0x3f60f4e5	0.8787368
108	0x3f78826c	0.9707401
109	0x3f482037	0.78174156
110	0x3f6aca21	0.91714674
111	0x3f6191ec	0.88113284
112	0x3f871d5f	1.0555838
113	0x3f6d56f8	0.9271083
114	0x3f8511c3	1.0396045
115	0x3f60b3f8	0.8777461
116	0x3f49c72b	0.7881953
117	0x3f6edfeb	0.9331042
118	0x3f74db42	0.9564706
119	0x3f59a82d	0.8502224
120	0x3f80c79f	1.006092
121	0x3f66f77a	0.9022137
122	0x3f75d851	0.960332
123	0x3f70ac1b	0.9401261
124	0x3f6790d5	0.9045537
125	0x3f7a0ff4	0.9768059
126	0x3f81d5da	1.0143387
127	0x3f7cba23	0.9872152
128	0x3f77f113	0.96852225
129	0x3f8589b0	1.0432644
130	0x3f795f9a	0.974115
131	0x3f54c818	0.8311782
132	0x3f511a87	0.816811
133	0x3f5d1ccd	0.8637207
134	0x3f640b86	0.89080083
135	0x3f8db61c	1.10712
136	0x3f592bae	0.84832275
137	0x3f64c1f9	0.8935848
138	0x3f691a83	0.9105608
139	0x3f4194d9	0.7561775
140	0x3f5f09c1	0.8712426
141	0x3f80c369	1.0059634
142	0x3f5a33c8	0.8523526
143	0x3f50cb12	0.8155986
144	0x3f5df93d	0.8670843
145	0x3f817a64	1.0115476
146	0x3f762ee8	0.96165323
147	0x3f74d7a0	0.9564152
148	0x3f5d0851	0.86340815
149	0x3f8272e4	1.0191312
150	0x3f6aeaf1	0.9176474
151	0x3f5d948a	0.8655478
152	0x3f704e94	0.938699
153	0x3f50cb05	0.81559783
154	0x3f5702e0	0.8398876
155	0x3f4dac99	0.8034149
156	0x3f85a845	1.0441977
157	0x3f87293c	1.0559459
158	0x3f62d113	0.8860027
159	0x3f57e186	0.84328496
160	0x3f486cce	0.7829102
161	0x3f6c364d	0.92270356
162	0x3f869ffe	1.0517576
163	0x3f495652	0.7864734
164	0x3f85611e	1.0420263
165	0x3f5c4a45	0.86050826
166	0x3f64859d	0.8926638
167	0x3f58f461	0.8474789
168	0x3f76a846	0.96350515
169	0x3f6feee5	0.937239
170	0x3f8701cb	1.0547422
171	0x3f5b33c9	0.8562589
172	0x3f772d5a	0.96553576
173	0x3f83a3d4	1.0284371
174	0x3f48d09a	0.784433
175	0x3f5d668d	0.86484605
176	0x3f689551	0.9085284
177	0x3f5176f5	0.8182214
178	0x3f816762	1.0109675
179	0x3f613371	0.8796912
180	0x3f7c6c16	0.98602426
181	0x3f5f1056	0.871343
182	0x3f5b5f96	0.8569273
183	0x3f77f669	0.9686037
184	0x3f6a0103	0.91407794
185	0x3f7753f9	0.9661251
186	0x3f85b47e	1.0445707
187	0x3f68f55b	0.9099938
188	0x3f402df1	0.750701
189	0x3f6b9bfa	0.92034876
190	0x3f51ac10	0.8190317
191	0x3f5121b6	0.81692064
192	0x3f78a9a1	0.97133833
193	0x3f62d611	0.8860789
194	0x3f602caa	0.8756815
195	0x3f50af4f	0.815175
196	0x3f615fc7	0.8803677
197	0x3f4530c1	0.7702752
198	0x3f52dd55	0.82368976
199	0x3f449351	0.76787287
200	0x3f4ebf22	0.80760396
201	0x3f5de2a9	0.8667398
202	0x3f6fec58	0.93720007
203	0x3f807de6	1.0038421
204	0x3f5cd25b	0.86258477
205	0x3f49987e	0.7874831
206	0x3f86aff3	1.0522445
207	0x3f3eefdc	0.74584746
208	0x3f8722c0	1.055748
209	0x3f52b6f3	0.8231041
210	0x3f45420c	0.77053905
211	0x3f6946b7	0.9112353
212	0x3f6bd0a0	0.9211521
213	0x3f720a85	0.945473
214	0x3f5ddd91	0.8666621
215	0x3f83ab37	1.0286626
216	0x3f8d459b	1.1036867
217	0x3f6ab57b	0.9168317
218	0x3f66e8db	0.9019906
219	0x3f68b8fc	0.90907264
220	0x3f8a408b	1.0800947
221	0x3f682495	0.9068082
222	0x3f70e3fe	0.9409789
223	0x3f4d858b	0.80281895
224	0x3f6bd6e7	0.9212479
225	0x3f5824b8	0.8443103
226	0x3f50e87c	0.81604743
227	0x3f7a2271	0.97708803
228	0x3f6bc0f7	0.92091316
229	0x3f6769a9	0.903956
230	0x3f8b287a	1.0871727
231	0x3f790f58	0.9728904
232	0x3f69bfb6	0.9130815
233	0x3f6e6a64	0.9313109
234	0x3f5e67c7	0.868771
235	0x3f5d5aec	0.8646686
236	0x3f5ee7ff	0.8707275
237	0x3f7d0a7f	0.9884414
238	0x3f5f2514	0.8716595
239	0x3f770dc2	0.9650537
240	0x3f63cfdc	0.88989043
241	0x3f762f67	0.9616608
242	0x3f78699d	0.97036153
243	0x3f59266a	0.8482424
244	0x3f8eba79	1.1150657
245	0x3f904345	1.1270529
246	0x3f8804d4	1.0626473
247	0x3f734139	0.95021397
248	0x3f84f17c	1.0386195
249	0x3f7afc2b	0.9804103
250	0x3f912d6c	1.1341987
251	0x3f67c4ae	0.90534484
252	0x3f899910	1.0749836
253	0x3f5d6f96	0.8649839
254	0x3f6eec02	0.9332887
255	0x3f79800d	0.97461015

model.1.bias f4 [256]
0	0xbdf8cf8c	-0.121489614
1	0xbec3e7b6	-0.3826272
2	0xbeada825	-0.33917347
3	0xbeb94403	-0.361847
4	0xbde3a7ec	-0.11116013
5	0xbe88c813	-0.26715145
6	0xbe51abc9	-0.20475687
7	0xbe4b4edd	-0.19854303
8	0xbf087514	-0.5330365
9	0xbe6f234d	-0.2335331
10	0xbec4c320	-0.3843012
11	0xbe312f17	-0.1730312
12	0xbdf13f23	-0.117796205
13	0xbea3a995	-0.31965318
14	0xbf1b75a0	-0.60726357
15	0xbe76db4a	-0.2410709
16	0xbe974604	-0.29545605
17	0xbece56a2	-0.4030047
18	0xbeb87631	-0.36027673
19	0xbee870cb	-0.45398554
20	0xbe87ea89	-0.26546124
21	0xbde84f29	-0.113432236
22	0xbe657ca9	-0.22410835
23	0xbeb71304	-0.35756695
24	0xbed44725	-0.4146053
25	0xbf16a0be	-0.58839023
26	0xbecc700b	-0.39929232
27	0x3bdae0a9	0.0066796136
28	0xbf2c9612	-0.6741649
29	0xbd9dfae5	-0.0771387
30	0xbea67dab	-0.32517752
31	0xbe5fd046	-0.21856794
32	0xbec37aaf	-0.38179538
33	0xbecef0d3	-0.4041811
34	0xbeaf8a85	-0.3428537
35	0xbe43a317	-0.19105183
36	0xbec01d05	-0.3752214
37	0xbf249e23	-0.643038
38	0xbed0f21f	-0.40809724
39	0xbe8aab1c	-0.2708367
40	0xbe6281bf	-0.22119807
41	0xbcc9356d	-0.024561608
42	0xbe53480a	-0.2063295
43	0xbe8d311c	-0.2757653
44	0xbe87a3e3	-0.26492223
45	0xbe8ccc9d	-0.27499858
46	0xbf23ee59	-0.64035565
47	0xbe60d585	-0.21956451
48	0xbe5e9b7e	-0.21739003
49	0xbe524075	-0.20532401
50	0xbedb3f47	-0.42821714
51	0xbe4be08e	-0.1990988
52	0xbe7b49fb	-0.2453994
53	0xbe89a88d	-0.26886407
54	0xbf0748f5	-0.528457
55	0xbedc703a	-0.43054372
56	0xbe8c03f1	-0.27346757
57	0xbea0e9e7	-0.31428453
58	0xbf288520	-0.6582813
59	0xbf034bd8	-0.51287603
60	0xbe7501a6	-0.2392641
61	0xbea47b7c	-0.3212546
62	0xbedb45a0	-0.42826557
63	0xbeb625aa	-0.3557561
64	0xbf002f6e	-0.5007237
65	0xbe6af800	-0.22946167
66	0xbec7173b	-0.3888491
67	0xbf0e6bed	-0.5563343
68	0xbea43a58	-0.32075763
69	0xbf358e44	-0.70920205
70	0xbe3d7ff2	-0.18505839
71	0xbf15da57	-0.58536285
72	0xbebb6d58	-0.3660686
73	0xbe9e3143	-0.3089696
74	0xbed02a5a	-0.40657312
75	0xbee4903a	-0.44641286
76	0xbf42fd56	-0.7616781
77	0xbe721214	-0.23639709
78	0xbe15742e	-0.145951
79	0xbea175e3	-0.31535253
80	0xbe445b94	-0.1917556
81	0xbf081626	-0.53158796
82	0xbe7c5e9c	-0.24645466
83	0xbdfa8e1e	-0.12234138
84	0xbf289ba8	-0.6586251
85	0xbf27bdeb	-0.65524167
86	0xbeac887b	-0.33697876
87	0xbf14a0fa	-0.5805813
88	0xbf0e6062	-0.5561582
89	0xbf415a72	-0.75528634
90	0xbeb34ba3	-0.35018644
91	0xbebd233e	-0.3694095
92	0xbf38fe23	-0.7226278
93	0xbe0a98f2	-0.13534907
94	0xbe1c4570	-0.15260863
95	0xbef5f3d4	-0.4803759
96	0xbdeeb83f	-0.11656236
97	0xbe1f335d	-0.15546937
98	0xbe71bd9e	-0.2360749
99	0xbf26aa6c	-0.65103793
100	0xbefc5d0e	-0.49289745
101	0xbf1f3a3e	-0.62198246
102	0xbe9816e2	-0.29704958
103	0xbf122c69	-0.57099015
104	0xbdef5ced	-0.11687646
105	0xbf07740a	-0.52911437
106	0xbe55d980	-0.20883751
107	0xbec9a963	-0.39387044
108	0xbee0ec89	-0.43930462
109	0xbf0838bc	-0.5321157
110	0xbf08198c	-0.5316398
111	0xbef79b08	-0.48360467
112	0xbef69695	-0.4816176
113	0xbe82b9e7	-0.25532457
114	0xbed6fbdc	-0.41989028
115	0xbecb09a5	-0.39655796
116	0xbeb1220c	-0.34596288
117	0x3c25d80c	0.01012231
118	0xbe200f3f	-0.15630816
119	0xbea97116	-0.3309409
120	0xbdf1b5a6	-0.11802225
121	0xbe9c5943	-0.3053685
122	0xbe926a10	-0.28596544
123	0xbee8904f	-0.454226
124	0xbf019562	-0.50618565
125	0xbf024631	-0.50888354
126	0xbe5a2293	-0.21302252
127	0xbebbad11	-0.36655477
128	0xbd84307f	-0.064545624
129	0xbe29ef5f	-0.16595219
130	0xbe7ff2da	-0.24994984
131	0xbf10c969	-0.5655733
132	0xbea5b2ce	-0.3236298
133	0xbe9cb100	-0.3060379
134	0xbe904f0e	-0.28185314
135	0x3a289cce	0.0006432057
136	0xbf08c1c1	-0.53420645
137	0xbda6a33f	-0.081366055
138	0xbeff61d2	-0.49879318
139	0xbf06a14c	-0.5258987
140	0xbeb95a04	-0.3620149
141	0xbef5b39f	-0.47988603
142	0xbec327b8	-0.3811624
143	0xbf2ddd52	-0.67915833
144	0xbea51497	-0.3224227
145	0xbf009376	-0.5022501
146	0xbeefb1d2	-0.46815354
147	0xbe8548ae	-0.26032013
148	0xbf0f929f	-0.560831
149	0xbe8cc539	-0.2749422
150	0xbee92430	-0.4553542
151	0xbecd3165	-0.40076748
152	0xbf16c1c6	-0.58889425
153	0xbec9b016	-0.39392155
154	0xbea4c369	-0.32180336
155	0xbf024137	-0.5088076
156	0xbd2ffb48	-0.04296425
157	0xbe73b866	-0.23800811
158	0xbed57582	-0.41691214
159	0xbeeed869	-0.46649483
160	0xbf08c97b	-0.53432435
161	0xbee78487	-0.45218298
162	0xbdd5d23d	-0.104404904
163	0xbf2bfe3c	-0.67184806
164	0xbf1799d9	-0.5921913
165	0xbeac2c21	-0.33627418
166	0xbe9746f2	-0.29546314
167	0xbeae2b1f	-0.34017274
168	0xbf390111	-0.7226725
169	0xbe8943a4	-0.26809418
170	0xbe3e1937	-0.18564306
171	0xbe99ac8d	-0.30014458
172	0xbe4e9b2f	-0.20176385
173	0xbe651321	-0.22370578
174	0xbf524d65	-0.82149345
175	0xbeab0977	-0.3340566
176	0xbe766380	-0.24061394
177	0xbf23b54b	-0.63948506
178	0xbeb68fef	-0.35656688
179	0xbf3a9eaf	-0.7289838
180	0xbebad717	-0.36492226
181	0xbf07bde6	-0.5302414
182	0xbebffbfc	-0.37496936
183	0xbe594c34	-0.21220475
184	0xbe6cedd2	-0.23137596
185	0xbbbaeac9	-0.005704258
186	0xbdb028ea	-0.08601554
187	0xbf0c2e6a	-0.5475832
188	0xbf2a26e0	-0.6646557
189	0xbebcf917	-0.3690879
190	0xbf301009	-0.6877447
191	0xbe9e4555	-0.3091227
192	0xbedc852c	-0.43070352
193	0xbe88ca01	-0.26716617
194	0xbe95919f	-0.29212663
195	0xbe706f8d	-0.23480053
196	0xbedfa9d1	-0.43684247
197	0xbec01892	-0.37518746
198	0xbf0f5aa7	-0.559977
199	0xbed049a5	-0.40681186
200	0xbf054685	-0.5206073
201	0xbef93aea	-0.4867776
202	0xbea2cc2e	-0.31796402
203	0xbe324c17	-0.17411838
204	0xbefc7ba5	-0.49313083
205	0xbf069ebf	-0.5258598
206	0xbe6f104d	-0.23346062
207	0xbedce628	-0.43144345
208	0xbe6d608f	-0.23181365
209	0xbf085666	-0.53256834
210	0xbeb2d5b6	-0.34928674
211	0xbebc7d68	-0.36814427
212	0xbef1cdfe	-0.47227472
213	0xbf074de2	-0.52853215
214	0xbf038bf4	-0.51385427
215	0xbdfc876e	-0.12330519
216	0xbee61a7b	-0.44942078
217	0xbf05381d	-0.5203875
218	0xbf0ec687	-0.5577168
219	0xbe9c36b1	-0.30510476
220	0xbd3442b4	-0.044008926
221	0xbdf490ac	-0.119416565
222	0xbef4898a	-0.47761184
223	0xbd7fe880	-0.06247759
224	0xbe5e8208	-0.2172929
225	0xbefc9a37	-0.49336407
226	0xbf66047f	-0.8985061
227	0xbec33b13	-0.38131008
228	0xbf00d5f2	-0.50326455
229	0xbeed550a	-0.46353942
230	0xbe3c0e4f	-0.18364833
231	0xbeaf671a	-0.34258348
232	0xbe8b4170	-0.27198362
233	0xbf0783ee	-0.52935684
234	0xbf287213	-0.65799063
235	0xbec1e4d7	-0.37869903
236	0xbea059c7	-0.31318495
237	0xbe35abdc	-0.1774134
238	0xbed9e4ef	-0.42557475
239	0xbe36bbef	-0.17845128
240	0xbedcbe43	-0.43113908
241	0xbd7c7be5	-0.061641593
242	0xbea14c59	-0.3150356
243	0xbf1f0f2d	-0.6213253
244	0xbccc048c	-0.024904512
245	0xbe46becd	-0.19408722
246	0xbea15198	-0.31507564
247	0xbf009efb	-0.50242585
248	0xbe1312b6	-0.14362606
249	0xbd9771eb	-0.07394775
250	0xbe3c53d2	-0.1839135
251	0xbea1a401	-0.31570438
252	0xbe35cc03	-0.17753606
253	0xbeaa100b	-0.33215365
254	0xbed7f895	-0.4218184
255	0xbf365ca3	-0.712351

model.1.running_mean f4 [256]
0	0xbe71921e	-0.23590896
1	0x3efd78f9	0.49506357
2	0x3dc758ba	0.0973372
3	0xbeb85672	-0.36003453
4	0xbe83dcb1	-0.25754312
5	0xbd225a9c	-0.039637193
6	0x3e654d9c	0.22392887
7	0x3de3cf50	0.11123526
8	0x3f44821a	0.7676102
9	0x3ecaf23c	0.39637935
10	0xbe5fe61c	-0.21865124
11	0xbe48a28e	-0.1959326
12	0x3eebba78	0.46040702
13	0x3e947bb0	0.29000616
14	0xbf70627c	-0.93900275
15	0xbf159ace	-0.5843934
16	0x3d6e98e1	0.058251265
17	0xbef3789e	-0.4755296
18	0x3dcd5806	0.10026555
19	0x3f19be39	0.6005588
20	0x3eb17cc7	0.3466551
21	0x3c9b8cc3	0.018988019
22	0x3eb47870	0.35248137
23	0x3e1ec326	0.1550413
24	0x3cfc1b77	0.030774815
25	0xbef0aac5	-0.47005287
26	0xbd74e6dc	-0.059790477
27	0x3d16969e	0.036764733
28	0x3e5e356f	0.21700071
29	0x3e679764	0.22616345
30	0xbf090dd6	-0.53536737
31	0x3de00941	0.10939265
32	0x3b6b91b2	0.0035944995
33	0x3f167390	0.58770084
34	0xbe9847d0	-0.2974229
35	0x3e19859a	0.14992371
36	0x3ea96492	0.33084542
37	0xbefd66c9	-0.4949248
38	0x3f845803	1.0339359
39	0xbe5d3ebb	-0.21605961
40	0x3ecc5013	0.39904842
41	0xbd22fbf4	-0.039791062
42	0x3f05f009	0.5231939
43	0x3f2ed937	0.68300194
44	0xbd9703ec	-0.07373795
45	0xbf4d6cca	-0.80244124
46	0xbf8340b2	-1.0254118
47	0xbd64ef70	-0.055892408
48	0xbe47c717	-0.1950954
49	0x3f37ab9b	0.71746224
50	0xbef004cb	-0.46878657
51	0x3ec514e2	0.38492495
52	0x3fb1880b	1.3869642
53	0xbe9649e3	-0.29353246
54	0x3ef26ad3	0.47347125
55	0xbeaf67fe	-0.34259027
56	0x3dc01750	0.093794465
57	0xbb53fa0d	-0.0032345087
58	0xbbb92ff8	-0.0056514703
59	0x3ee9afaf	0.45641848
60	0xbf6dcfef	-0.92895406
61	0xbf030312	-0.5117656
62	0xbe8d0c20	-0.27548313
63	0x3e9e6b34	0.30941164
64	0xbefebd08	-0.49753594
65	0x3e71efcb	0.2362663
66	0x3eea59c6	0.45771617
67	0x3f639d0f	0.8891153
68	0x3eeed5f5	0.4664761
69	0xbf750a46	-0.957188
70	0x3dbc7141	0.09201289
71	0x3bf92ebc	0.007604448
72	0xbf034ca4	-0.5128882
73	0x3d9a9892	0.07548632
74	0xbf0778ac	-0.52918506
75	0xbedd727a	-0.432514
76	0xbf3c9d0c	-0.73677135
77	0xbed67db4	-0.4189278
78	0x3e7939cd	0.24338455
79	0x3f2b4eee	0.6691731
80	0x3fa50006	1.2890632
81	0x3ef5d883	0.48016748
82	0xbecc3cf8	-0.39890265
83	0xbec4cb07	-0.38436148
84	0xbeea02b3	-0.45705184
85	0xbf119d4b	-0.56880635
86	0x3e0e91e0	0.13922834
87	0xbe17d6eb	-0.14828078
88	0xbe3e6c71	-0.18596055
89	0xbf65fe63	-0.8984129
90	0x3f58d354	0.8469746
91	0xbec53e9e	-0.38524336
92	0xbf6f37e4	-0.9344466
93	0x3f4bc5b6	0.7959856
94	0x3eb22d73	0.348003
95	0xbe4661e0	-0.19373274
96	0xbe0b03a5	-0.13575609
97	0x3c165c0a	0.009177217
98	0x3f14d3be	0.5813559
99	0x3d05d330	0.032672107
100	0x3e705fa4	0.23473984
101	0xbea3f79e	-0.32024854
102	0xbeac6cad	-0.33676663
103	0xbee82f83	-0.4534875
104	0xbe85d6e1	-0.26140502
105	0x3e6fe089	0.23425497
106	0xbe5ff871	-0.21872117
107	0x3d05dce6	0.03268137
108	0xbea40cad	-0.3204092
109	0xbe265363	-0.16242747
110	0xbf17f7ce	-0.59362495
111	0x3df4746c	0.11936268
112	0xbf2fd140	-0.68678665
113	0x3c9f3380	0.019433737
114	0xbf86f630	-1.054388
115	0x3e1e8a3e	0.15482423
116	0xbe910221	-0.28321937
117	0xbe91af27	-0.28453943
118	0x3eaddc1d	0.33956996
119	0xbe8e379b	-0.277768
120	0xbeae2c70	-0.34018278
121	0xbe8ba942	-0.2727757
122	0xbe783e9a	-0.2424263
123	0x3f03b60a	0.51449645
124	0x3ebcfee4	0.36913216
125	0x3cb20e7c	0.021735422
126	0xbe60a0e4	-0.21936375
127	0xbf469ef7	-0.7758631
128	0x3c76f8a1	0.015073926
129	0x3e70ee41	0.23528387
130	0xbee0bbed	-0.43893376
131	0xbd9cf14b	-0.076632105
132	0xbede2820	-0.43389988
133	0xbe9801f2	-0.29688984
134	0xbcfc1ede	-0.030776437
135	0x3e707330	0.2348144
136	0xbebbdc96	-0.3669173
137	0x3d92922a	0.07156785
138	0xbceab310	-0.028649837
139	0xbebf8510	-0.37406206
140	0x3ed83aaf	0.42232272
141	0x3f508a88	0.8146138
142	0xbe5fa573	-0.21840458
143	0x3cba03fa	0.022706974
144	0xbf042ad3	-0.51627845
145	0x3e3b62ae	0.18299362
146	0xbf8e2ee5	-1.1108061
147	0xbcf84b38	-0.030309305
148	0x3ed4a367	0.41530916
149	0x3f21850f	0.63093656
150	0x3eb2ab28	0.34896207
151	0xbf06d22f	-0.52664465
152	0xbdd53ec7	-0.104123645
153	0x3f1bc219	0.60843045
154	0xbdd115cf	-0.10209238
155	0x3e6332b5	0.22187312
156	0xbe9cbd72	-0.30613285
157	0xbe0ddf8e	-0.1385481
158	0xbe61024b	-0.21973531
159	0x3e817b7a	0.25289518
160	0x3f8b850b	1.0899976
161	0x3e89b0ab	0.268926
162	0xbec3a01e	-0.38208097
163	0x3e64a02d	0.22326727
164	0xbf7e5fd5	-0.9936498
165	0x3dac8a1b	0.08424779
166	0xbc5bbe70	-0.013412103
167	0x3e482d03	0.1954842
168	0x3ec313ff	0.38101193
169	0x3e0ead7c	0.13933367
170	0x3ce78b7f	0.02826476
171	0xbf0206f9	-0.5079189
172	0xbd010376	-0.03149744
173	0xbd222668	-0.03958741
174	0xbf106014	-0.56396604
175	0xbf31ded6	-0.69480646
176	0x3ecd00ca	0.40039665
177	0x3d1938cf	0.037407693
178	0xbf82b0fb	-1.021026
179	0xbf093104	-0.53590417
180	0xbe97de5a	-0.29661828
181	0xbf1df0d3	-0.61695594
182	0xbe5a6811	-0.2132876
183	0xbe2924ad	-0.16517897
184	0xbd019bf8	-0.031642884
185	0xbe440ee4	-0.19146305
186	0x3df4540e	0.11930095
187	0xbc2a01d4	-0.010376412
188	0xbf235c9c	-0.63813186
189	0x3e454dcd	0.1926796
190	0xbf709624	-0.93979096
191	0x3ec9023f	0.39259526
192	0x3f88c59b	1.0685304
193	0x3e3bfd29	0.18358292
194	0x3d7f0b45	0.062266607
195	0xbe87132e	-0.2638182
196	0x3d0d5a41	0.0345099
197	0xbeefcfe9	-0.4683831
198	0xbceb2c7a	-0.028707732
199	0x3f2e9f07	0.68211406
200	0x3d72b3ef	0.05925363
201	0x3e1d4cb6	0.15361294
202	0x3f6ff5ab	0.93734235
203	0xbeeba2cb	-0.4602264
204	0xbf9e9bd5	-1.2391306
205	0x3e930012	0.2871099
206	0x3e6fb5af	0.2340915
207	0x3e843057	0.2581813
208	0xbcf6ccab	-0.03012689
209	0xbf377c67	-0.716742
210	0x3d25d698	0.040487856
211	0x3e5e5c27	0.21714841
212	0x3dabc1eb	0.08386596
213	0x3f3c6fb4	0.73607945
214	0xbe41a81f	-0.1891179
215	0xbdef5d84	-0.116877586
216	0x3e9e57ab	0.3092626
217	0x3b7e7026	0.003882417
218	0x3f3811a1	0.719019
219	0x3e9c96de	0.30583853
220	0xbe1c4eab	-0.15264384
221	0x3eeded11	0.4646993
222	0xbee53c9d	-0.44772807
223	0x3f6081e1	0.8769818
224	0xbeca730c	-0.395409
225	0xbd965612	-0.07340635
226	0xbf0887f4	-0.5333245
227	0x3e88ab2f	0.26693103
228	0xbf6a942e	-0.91632354
229	0xbea9737c	-0.3309592
230	0xbf5c65fc	-0.86093116
231	0x3f5134ce	0.817212
232	0x3eb80df8	0.35948157
233	0xbe3ce81d	-0.18447919
234	0xbf09862a	-0.53720343
235	0x3ed9edbc	0.4256419
236	0x3d117de3	0.035520446
237	0xbed8d9d8	-0.42353702
238	0x3ec88291	0.39162114
239	0xbe2b5a48	-0.16733658
240	0xbf51dd3c	-0.819782
241	0x3f0822e6	0.5317825
242	0x3d7e902b	0.062149208
243	0xbf02d604	-0.5110781
244	0x3f0ec696	0.5577177
245	0x3dcfeb30	0.1015228
246	0x3f8f0999	1.1174804
247	0xbf2da552	-0.67830384
248	0xbbdd686f	-0.006756834
249	0xbd0092b4	-0.031389907
250	0xbee8d019	-0.45471266
251	0x3f7f2714	0.99669003
252	0xbf17e603	-0.59335345
253	0x3ea9424d	0.33058396
254	0xbe82e23b	-0.25563225
255	0xbf2778bb	-0.65418595

model.1.running_var f4 [256]
0	0x3fb151ec	1.3853126
1	0x3f9c6acd	1.2220093
2	0x3faf35bf	1.3688277
3	0x3f987bcc	1.191278
4	0x3fccc728	1.5998278
5	0x3fdbafb6	1.7162998
6	0x3fe5d1f2	1.7954695
7	0x3fbffee8	1.4999666
8	0x3f694d2e	0.9113339
9	0x3fc38c20	1.5277138
10	0x3f61e722	0.88243306
11	0x3fe5bd99	1.7948486
12	0x400b6823	2.178231
13	0x3faf7d07	1.371003
14	0x3f663b4f	0.8993425
15	0x3f99202d	1.1962944
16	0x3fbd0720	1.4767799
17	0x3f1c5fba	0.6108357
18	0x3fa03fcb	1.2519468
19	0x3fb5669a	1.4171937
20	0x3fd393ce	1.6529481
21	0x3fcdcb71	1.607771
22	0x3f75665b	0.9585931
23	0x3fde4410	1.7364521
24	0x3fc02629	1.5011646
25	0x3fba1454	1.4537454
26	0x3fca2f0e	1.579561
27	0x3fefb04f	1.872568
28	0x40181275	2.3761265
29	0x4035329f	2.8312147
30	0x3f7b4960	0.98158836
31	0x3fa54b2e	1.2913568
32	0x3fbe12ad	1.4849449
33	0x3f8c76d5	1.0973765
34	0x3fae2a7c	1.3606715
35	0x3fe7f728	1.8122301
36	0x3fa3f7f6	1.2810047
37	0x3f582214	0.84427
38	0x3fe89cc2	1.8172839
39	0x3f609d51	0.87740046
40	0x40071083	2.1103828
41	0x40388957	2.8833826
42	0x3f88c27c	1.0684352
43	0x3f794fa8	0.9738717
44	0x3f869025	1.051274
45	0x3f8c324f	1.0952853
46	0x3f83e765	1.0304991
47	0x3f8b6aa2	1.0891917
48	0x3fb2d383	1.3970798
49	0x3f91ce5f	1.1391104
50	0x3fc5aca6	1.5443313
51	0x3fb9e993	1.4524406
52	0x3ef49654	0.4777094
53	0x3f7fe386	0.9995655
54	0x3fa01cc2	1.2508776
55	0x3eb28966	0.34870452
56	0x3f8fb037	1.1225652
57	0x3fca0e64	1.5785642
58	0x3fff6f23	1.9955791
59	0x3f5705c0	0.8399315
60	0x3fd38565	1.6525084
61	0x3f8e8205	1.1133429
62	0x3f95fdef	1.1718119
63	0x3f901a09	1.1257945
64	0x3f8c489b	1.0959657
65	0x3f7921be	0.9731711
66	0x3f80caf8	1.0061941
67	0x3f96cb29	1.178075
68	0x3f747ff3	0.95507735
69	0x3de08017	0.10961931
70	0x3f9d313e	1.2280653
71	0x3fff10f4	1.9927049
72	0x3f2e45c1	0.68075186
73	0x40009847	2.0092943
74	0x3fb10035	1.3828188
75	0x3f392489	0.72321373
76	0x3e52008b	0.2050802
77	0x3ff18af8	1.8870535
78	0x3f723e4e	0.9462632
79	0x3fafba89	1.3728801
80	0x3fab6ae3	1.3391994
81	0x3f0a250d	0.53962785
82	0x3f63489b	0.8878266
83	0x3fe021a2	1.7510264
84	0x3f719b61	0.94377714
85	0x3f8c9540	1.0983047
86	0x3f7aa4aa	0.9790751
87	0x3f6120e6	0.87940824
88	0x3f52361f	0.8211383
89	0x3f902a94	1.1262994
90	0x3fbbb4cf	1.4664553
91	0x3f7ce478	0.98786116
92	0x3f86886c	1.0510383
93	0x3fda9887	1.7077798
94	0x3fd79f76	1.6845539
95	0x3f48dda4	0.78463197
96	0x3fcd1820	1.6022987
97	0x40005dab	2.005717
98	0x3f698111	0.91212565
99	0x3fa8ad5d	1.3177906
100	0x3f2e5aa7	0.68107074
101	0x3f84ce50	1.0375462
102	0x3fd4db35	1.6629397
103	0x3f5581af	0.83401006
104	0x3f9d940f	1.2310809
105	0x3f9fd026	1.2485397
106	0x3f83810d	1.0273758
107	0x3f798960	0.9747524
108	0x4004eabb	2.0768268
109	0x3f69c122	0.9131032
110	0x3f425883	0.7591631
111	0x40091df3	2.142453
112	0x3e95f7ed	0.29290715
113	0x401e184e	2.4702334
114	0x3f4d74e7	0.80256504
115	0x3fdbc15a	1.7168381
116	0x3f9f3568	1.2438173
117	0x3fc0b537	1.5055302
118	0x3fce3677	1.6110371
119	0x3fdcf9e1	1.7263757
120	0x3fa7f73b	1.3122324
121	0x3fb22ce4	1.391995
122	0x3fa5da64	1.2957273
123	0x3f5dae99	0.8659454
124	0x3fd2f397	1.6480588
125	0x3faed51e	1.3658788
126	0x3fa80a04	1.3128057
127	0x3f863766	1.0485656
128	0x3fb1e9e1	1.3899499
129	0x3fb0a128	1.3799181
130	0x3f9627cb	1.1730894
131	0x3fbfed24	1.4994245
132	0x3f51af10	0.8190775
133	0x3f54d6ae	0.83140075
134	0x3fc98e96	1.5746639
135	0x4031764d	2.7728455
136	0x3fe0af1f	1.7553443
137	0x3f81ae01	1.0131227
138	0x3f978c04	1.1839604
139	0x3f6ea4f5	0.93220454
140	0x4043f3ae	3.061748
141	0x3fa4e326	1.288182
142	0x3f87c3fe	1.0606687
143	0x3ff3191e	1.899204
144	0x3faa8aee	1.3323648
145	0x3feb7407	1.8394784
146	0x3f4bc1b5	0.7959245
147	0x3fd53a12	1.6658347
148	0x4010fb08	2.2653217
149	0x3fca5d30	1.5809689
150	0x3fde9b22	1.7391093
151	0x3fee0925	1.8596541
152	0x3f8999af	1.0750026
153	0x3f8fc5c5	1.123223
154	0x3f8ee4ed	1.1163613
155	0x3f81d80b	1.0144056
156	0x3f9df927	1.234166
157	0x3faca252	1.3487036
158	0x4015a7b7	2.3383615
159	0x3fc631e2	1.5483973
160	0x3ed3285e	0.41241735
161	0x4009e211	2.154423
162	0x3fa96b40	1.3235855
163	0x3fa2fb25	1.2732893
164	0x3e1411b7	0.14459883
165	0x3fd35f9b	1.6513551
166	0x3f92bcf5	1.1463915
167	0x3fa58778	1.2931967
168	0x3f0c300d	0.5476082
169	0x3ffddb55	1.983256
170	0x3f7739d9	0.96572644
171	0x3f430f21	0.7619496
172	0x3f988c36	1.1917789
173	0x3f9ca6e3	1.223843
174	0x3f95ca9c	1.1702456
175	0x3fa55086	1.2915199
176	0x3fb1be32	1.3886168
177	0x3fa02f8b	1.2514509
178	0x3f974ed7	1.1820935
179	0x3f7a55b8	0.97787046
180	0x3f5dedc6	0.8669094
181	0x3f93d220	1.15485
182	0x3f8395ec	1.0280128
183	0x3fa1e54e	1.2648103
184	0x3fbab1b7	1.4585484
185	0x3fb3dfd2	1.405268
186	0x3fa5dee6	1.2958648
187	0x3efcd655	0.49382272
188	0x3f4440a4	0.76661134
189	0x3f871db2	1.0555937
190	0x3f792b2e	0.9733151
191	0x3fcff1f8	1.6245718
192	0x401ce4bd	2.451461
193	0x3f5d86f1	0.8653403
194	0x3fba1bad	1.4539696
195	0x3fb83857	1.4392194
196	0x3f8c3a00	1.09552
197	0x3fc6d23c	1.5532908
198	0x3fbc3a1d	1.4705235
199	0x3fc1fd8b	1.51555
200	0x3f4f3473	0.80939406
201	0x3fc121a1	1.5088388
202	0x3fa5deec	1.2958655
203	0x3fa3f1d1	1.2808172
204	0x4035d6f1	2.841244
205	0x3fe475fe	1.7848508
206	0x3fa2362d	1.2672783
207	0x400da644	2.213273
208	0x3fd1fe16	1.6405666
209	0x3f9af3fc	1.2105708
210	0x3fed027c	1.8516383
211	0x3feb06d8	1.8361464
212	0x4000e23d	2.0138085
213	0x3f04206c	0.5161197
214	0x3f8a12cf	1.078699
215	0x3fbe6fa3	1.4877819
216	0x3fa2e222	1.272526
217	0x3f9fb6ef	1.2477702
218	0x3f815346	1.0103538
219	0x400145b2	2.0198789
220	0x3ff7d547	1.9361962
221	0x3f92338e	1.1421983
222	0x400d3873	2.2065704
223	0x4010bc96	2.2615104
224	0x3fcdfdda	1.6093094
225	0x3f8f5f6d	1.1200997
226	0x3faf8f91	1.3715688
227	0x3f9b42d0	1.2129765
228	0x3f02e733	0.5113403
229	0x400461b1	2.0684626
230	0x3fd6d660	1.6784172
231	0x3fa60ca8	1.2972612
232	0x40041fec	2.0644484
233	0x402e4fe2	2.7236257
234	0x3f9601c9	1.1719295
235	0x3fdb55e6	1.7135589
236	0x4003bac6	2.0582747
237	0x3fa88b9b	1.3167604
238	0x3f94006e	1.1562631
239	0x3f9da6c7	1.2316521
240	0x3f39db8e	0.7260064
241	0x3f3c3712	0.7352153
242	0x3f8d0767	1.1017884
243	0x3fd6db4a	1.6785672
244	0x4006820e	2.101688
245	0x3ff16cd0	1.8861332
246	0x3f713756	0.9422506
247	0x3fab7553	1.339518
248	0x3fd32952	1.6496985
249	0x3ff551c4	1.9165578
250	0x3fc81955	1.5632731
251	0x3ff64199	1.9238769
252	0x3fd66c92	1.6751883
253	0x402328a7	2.5493562
254	0x3fa2cc78	1.2718649
255	0x3eb9a80a	0.36261016

model.4.weight f4 [128, 256]
0	0xbe784221	-0.24243976
1	0x3e26d3fb	0.16291802
2	0x3ba91668	0.0051601417
3	0x3e1b3b43	0.15159325
4	0xbd3d1edc	-0.046172008
5	0x3d7caeb4	0.061690047
6	0xbdbe4369	-0.09290201
7	0x3b29171d	0.002580113
8	0xbe0ac28e	-0.13550779
9	0x3d67cd05	0.056592006
10	0xbb0a696a	-0.002111996
11	0xbe21b7d5	-0.15792783
12	0x3c63861a	0.013886953
13	0xbed0960a	-0.4073947
14	0x3d8507e9	0.06495649
15	0xbd50d2a1	-0.05098212
16	0xbe7410fa	-0.23834601
17	0x3d30df0d	0.043181468
18	0x3dfaf33e	0.12253426
19	0xbeb7fade	-0.35933584
20	0xbd8d2661	-0.06892086
21	0xbd82c3f8	-0.06385034
22	0xbea5f3ed	-0.32412663
23	0xbbc4f878	-0.006011065
24	0x3cc3b39e	0.02388936
25	0xbc5d1b7e	-0.013495324
26	0xbd309fc3	-0.04312111
27	0xbc34e13f	-0.011040031
28	0xbcbfd15e	-0.023415264
29	0x3ad92e58	0.0016569598
30	0x3d54bbae	0.051936798
31	0xbe8811f3	-0.26576194
32	0xbe59169e	-0.21200034
33	0xbe476e7e	-0.19475743
34	0xbdbfdcdf	-0.093683
35	0x3c1d7d23	0.009612354
36	0x3e0469e8	0.12931025
37	0x3b52351e	0.0032075117
38	0xbecc3e81	-0.39891437
39	0xbe4f195d	-0.20224519
40	0x3d373d96	0.044736467
41	0x3d1680ad	0.03674381
42	0xbe1b6837	-0.15176474
43	0xbebfe8a7	-0.37482187
44	0xbe78849b	-0.24269335
45	0xbbb6a2d4	-0.00557361
46	0xbd0ac517	-0.033879366
47	0xbe8badd5	-0.2728106
48	0xbe6da81c	-0.2320866
49	0xbeaecceb	-0.34140715
50	0x3e267b6e	0.16258022
51	0x3d721b87	0.059108283
52	0xbd63de72	-0.055632062
53	0xbdf2265f	-0.11823725
54	0xbe84e914	-0.25959074
55	0x3e1c58ea	0.15268293
56	0xbe54f6e4	-0.20797306
57	0x3d189261	0.037248973
58	0xbb898b59	-0.0041975197
59	0xbd4188a4	-0.04724945
60	0xbe3f0949	-0.18655886
61	0x3e80b05c	0.25134552
62	0xbd07f7b5	-0.033195216
63	0x3de32ce8	0.110925496
64	0x3e84029a	0.25783235
65	0xbd01dae6	-0.0317029
66	0xbe171e0a	-0.14757553
67	0x3e3747c3	0.17898469
68	0xbecd2754	-0.40069067
69	0xbee1859f	-0.44047257
70	0x3dc90293	0.09814944
71	0xbbe1ad90	-0.0068871453
72	0x3da4578e	0.08024512
73	0xbd22b615	-0.03972443
74	0x3d2eb4e1	0.04265297
75	0x3c758635	0.014985611
76	0x3e73a13e	0.23791978
77	0xbde03648	-0.10947853
78	0xbe3f1de7	-0.1866375
79	0x3ce2982c	0.027660452
80	0xbec95ee2	-0.39330202
81	0xbde5d586	-0.11222367
82	0x3d604dbb	0.05476163
83	0x3d22fb28	0.039790303
84	0x3d8ea353	0.069647454
85	0x3d155606	0.03645899
86	0xba931008	-0.0011219988
87	0x3e4e5d84	0.20152861
88	0xbdce44b1	-0.100716956
89	0x3e201bc0	0.15635586
90	0xbe734434	-0.23756486
91	0xbdb0f68f	-0.08640777
92	0x3e6895c4	0.22713381
93	0xbd641734	-0.05568619
94	0xbe36b13c	-0.17841047
95	0x3d4da086	0.050201915
96	0xbe9742a8	-0.29543042
97	0xbd8c2f80	-0.068449974
98	0xbe8b1623	-0.27165326
99	0x3d8ea2a2	0.069646135
100	0xbe7064e1	-0.23475982
101	0xbd814dab	-0.06313642
102	0xbd3f5d83	-0.04672004
103	0x3d8dd7b4	0.06925908
104	0xbe5f841c	-0.2182774
105	0xbe19814d	-0.1499073
106	0xbecf2523	-0.4045802
107	0xbaf70f00	-0.0018849075
108	0x3c236552	0.009972887
109	0x3e158e92	0.14605168
110	0x3dac712f	0.084200256
111	0x3dc4c6fc	0.09608266
112	0xbe8e73c2	-0.2782269
113	0x3d8d7870	0.06907737
114	0x3da3b25d	0.079930045
115	0xbcacd3d6	-0.021097105
116	0x3c2dc4ed	0.010606033
117	0xbd3dbdcf	-0.046323594
118	0xbe66dd79	-0.22545423
119	0x3bfa7c36	0.0076442016
120	0xbead74d5	-0.33878198
121	0x3c223dd5	0.009902437
122	0xbeb358bb	-0.35028633
123	0xbe4920ba	-0.1964139
124	0xbc96f452	-0.018427048
125	0xbe25ad40	-0.16179371
126	0xbe5de956	-0.21671042
127	0x3e913b88	0.2836573
128	0xbe2b78dd	-0.16745324
129	0x3e949d91	0.29026464
130	0xbe7adb08	-0.24497616
131	0xbda293da	-0.07938357
132	0x3d33d0a3	0.043900143
133	0x3dd1290c	0.10212907
134	0xbda0c4d5	-0.07850043
135	0x3c984590	0.018587857
136	0xbc9cf2e8	-0.019158795
137	0xbd961c2d	-0.07329593
138	0xbe522b45	-0.20524319
139	0xbd23a3b6	-0.03995105
140	0xbc3c0e0d	-0.011477959
141	0xbcd98b05	-0.026555547
142	0xbc23abfe	-0.009989737
143	0xbce563cd	-0.02800169
144	0xbbda592e	-0.006663463
145	0xba9be4e1	-0.0011893773
146	0x3e7e60e3	0.24841647
147	0xbe5324ed	-0.20619555
148	0x3bc4b633	0.006003165
149	0xbe3bce0d	-0.18340321
150	0x3da52308	0.08063322
151	0xbdd1f0e8	-0.10251027
152	0x3e357ff6	0.17724594
153	0xbc8c9306	-0.01715995
154	0xbdebff10	-0.11523259
155	0x3d29e088	0.041473895
156	0xbe9dec0f	-0.3084416
157	0x3e1e6949	0.1546985
158	0x3d30c4f1	0.043156568
159	0x3cd0b0f4	0.025475003
160	0xbe085e16	-0.13317141
161	0x3da4a025	0.08038358
162	0xbeb6555a	-0.35611993
163	0x3c10076c	0.008790832
164	0xbeb8e709	-0.36113766
165	0xbdc731d0	-0.09726298
166	0xbba18177	-0.0049287635
167	0x3cf54020	0.029937804
168	0xbdd781cf	-0.10522806
169	0x3e31192c	0.17294759
170	0xbe7f0fa7	-0.24908315
171	0x3de4f8f6	0.11180298
172	0xbdd52a62	-0.104084745
173	0xbd6cd4c5	-0.0578201
174	0x3e154928	0.14578688
175	0x3df36932	0.11885299
176	0xbc3b9cfb	-0.011451001
177	0x3d5f6d6d	0.054547716
178	0x3e6f7893	0.23385839
179	0xbbe60607	-0.0070197615
180	0xbe82f6dd	-0.25578967
181	0xbd4b59bc	-0.049646124
182	0xbd80623c	-0.06268737
183	0xbebd3a90	-0.36958742
184	0xbe4eb948	-0.20187867
185	0xbe37cc8a	-0.17949119
186	0xbed19450	-0.40933466
187	0xbdea653d	-0.11445091
188	0x3d96acfe	0.073572144
189	0xbe2ebf83	-0.17065243
190	0xbc53cbf2	-0.012927042
191	0xbd0bd573	-0.034139108
192	0xbeb2263e	-0.347948
193	0xbeb025bb	-0.34403786
194	0x3cd8293c	0.02638685
195	0x3d52c7b9	0.05146
196	0x3dbb6ca0	0.09151578
197	0xbd184e6f	-0.037184175
198	0x3d7b807d	0.061401833
199	0xbc7e07ec	-0.015504818
200	0xbdeeefc6	-0.11666827
201	0x3de14193	0.109988354
202	0x3d506977	0.05088183
203	0xbd38a045	-0.04507472
204	0x3e548f38	0.20757759
205	0x3cbef668	0.023310855
206	0xbed1023b	-0.40822014
207	0x3d339783	0.043845665
208	0xbdf5be7a	-0.11999221
209	0x3e4b92d6	0.19880232
210	0xbd319d53	-0.043362927
211	0xbe3e980c	-0.18612689
212	0xbd3c667f	-0.045996185
213	0xbd40a8a6	-0.047035836
214	0x3ca6325b	0.020287683
215	0xbd56ef4e	-0.052474312
216	0xbe41349d	-0.18867727
217	0xbe1b1836	-0.15145954
218	0xbda7de5e	-0.0819671
219	0xbc87a36f	-0.016557423
220	0xbdb308e4	-0.0874193
221	0xbe639d1d	-0.22227903
222	0x3dc2dcb8	0.09514755
223	0x3c84c95a	0.016209293
224	0x3d60e290	0.054903567
225	0x3d4dcf08	0.05024627
226	0x3ce03d7c	0.027373068
227	0x3e4af032	0.1981819
228	0xbe003eb8	-0.12523925
229	0x3dd2733a	0.10275884
230	0x3e584437	0.21119772
231	0xbe515d0d	-0.20445652
232	0x3c60dadc	0.013724055
233	0x3dcd56f6	0.10026352
234	0x3e3f8dfd	0.18706508
235	0x3d2139e4	0.03936185
236	0x3d567ac5	0.052363176
237	0xbdfb1e28	-0.12261611
238	0x3e5c639c	0.21522373
239	0xbd7f8c25	-0.06238951
240	0x3e23257a	0.15932265
241	0xbe33b83e	-0.17550752
242	0xbdc87034	-0.09787026
243	0x3e5bb3fc	0.21455377
244	0xbc75f259	-0.015011393
245	0x3e3f89a6	0.18704852
246	0xbeaa51f6	-0.33265656
247	0x3d99fe03	0.07519152
248	0x3e4be737	0.1991242
249	0xbe768b83	-0.24076657
250	0x3c413df4	0.011794556
251	0xbec38799	-0.3818939
252	0xbd87c58e	-0.066294774
253	0x3c3b32fd	0.011425731
254	0xbd3c293a	-0.045937754
255	0x3e73aaea	0.23795667

model.4.bias f4 [128]
0	0xbc93cd53	-0.018042242
1	0xbd5305f2	-0.05151934
2	0x3c9e3997	0.01931457
3	0xbbe2aada	-0.0069173397
4	0xbcdaae30	-0.026694387
5	0xbd6f727e	-0.058458798
6	0xbd458add	-0.048228133
7	0x3ca13cb4	0.019682266
8	0xbd5596f0	-0.0521459
9	0x3d13c63c	0.036077723
10	0x3d65c902	0.0560999
11	0x3c8066e0	0.015674055
12	0x3d0bc3ac	0.034122154
13	0x3d217544	0.039418474
14	0x3d2c25b9	0.042028163
15	0xbd33b9a1	-0.0438782
16	0xbbec4656	-0.007210533
17	0xbd4b5b08	-0.04964736
18	0x3d560652	0.05225212
19	0x3d3290b4	0.04359503
20	0xbd2ecc04	-0.042675033
21	0x3d23400a	0.039855994
22	0x3cd391d2	0.025826368
23	0xbd65b0b5	-0.056076724
24	0xbc5279df	-0.012846439
25	0x3d38f9ba	0.045160033
26	0xbd16d8a6	-0.036827706
27	0x3d7cf441	0.061756376
28	0xbc4229be	-0.011850772
29	0xbc089954	-0.0083373375
30	0x3b74aea0	0.003733553
31	0x3d4932d0	0.049120724
32	0x3cf2f1a0	0.029656231
33	0x3d32bd2e	0.043637447
34	0xbd43f118	-0.047837347
35	0x3ccff946	0.025387418
36	0xbd196256	-0.037447296
37	0xbd3e0238	-0.046388835
38	0xbd193adc	-0.03740965
39	0x3c047e18	0.008086704
40	0xbd6ff7c7	-0.05858591
41	0x3b257914	0.002524917
42	0xbd7207ab	-0.059089344
43	0xbd1ac875	-0.037788827
44	0xbd2bdc6b	-0.041958254
45	0x3b89bb43	0.0042032315
46	0x3bf43a61	0.0074532484
47	0xbd5bc94e	-0.053658776
48	0xbc899c8a	-0.016798276
49	0xbc8a5669	-0.016886907
50	0xbd1aae7e	-0.037764065
51	0x3c9e3f0d	0.019317174
52	0xbd3b9f7b	-0.04580639
53	0xbcea32eb	-0.028588733
54	0xb912ad34	-0.00013988168
55	0x3d5ef9db	0.0544375
56	0xbd7d5665	-0.06184997
57	0x3c9ba259	0.018998312
58	0x3d36fda5	0.044675488
59	0x3d4d27fa	0.050086953
60	0x3cb2829c	0.021790795
61	0xbd5097d3	-0.05092604
62	0x3c87c6c7	0.016574277
63	0x3c7eebae	0.01555912
64	0x3d01fe43	0.031736623
65	0xbd574d53	-0.052563976
66	0x3ccfa319	0.025346326
67	0xbd488d37	-0.048962798
68	0xbd56463c	-0.052313074
69	0x3d4d16c1	0.050070528
70	0xbd1b7220	-0.037950635
71	0xbb8739c5	-0.0041267597
72	0x3d4e83b3	0.050418567
73	0x3b70be8f	0.0036734676
74	0xbc1f9c2e	-0.009741826
75	0x3cedf665	0.029048154
76	0xbd14babb	-0.036310893
77	0x3ce95433	0.028482532
78	0xbb8a1c0e	-0.00421477
79	0x3d59299b	0.053018194
80	0xbd7efa49	-0.06225041
81	0x3ad80203	0.0016480092
82	0x3af803ca	0.0018922028
83	0xbbdd5990	-0.0067550614
84	0xbd23db5b	-0.040004116
85	0xbcb9cb01	-0.022679808
86	0x3d56d998	0.052453607
87	0xbb9f2eef	-0.00485789
88	0x3d295309	0.041338954
89	0xbd0fabef	-0.035076078
90	0xbcab326f	-0.020898072
91	0x3d674814	0.056465223
92	0xbce07368	-0.02739878
93	0x3d234bb8	0.039867133
94	0x3cde6c28	0.027151182
95	0xbc0bebae	-0.008540077
96	0x3cb6c572	0.022310946
97	0x3c47eb71	0.01220213
98	0xbd59acdf	-0.05314338
99	0x3d7a24a4	0.0610701
100	0x3d2e611c	0.04257308
101	0x3c72fb79	0.014830464
102	0x3d3fbeaf	0.04681271
103	0x3c9b944f	0.018991617
104	0x3c95a4d6	0.018267076
105	0xbc213c2a	-0.009841004
106	0xbb50c493	-0.0031855449
107	0x3d1fbe14	0.038999632
108	0xbd7abe09	-0.061216388
109	0xbb40c54d	-0.0029414475
110	0x3d434ff6	0.04768368
111	0xbd5e0a1a	-0.054208852
112	0xbceeb161	-0.029137315
113	0xbd25b63c	-0.040456995
114	0xbca41cb9	-0.020033227
115	0xbd767afa	-0.060175873
116	0x3cc532f8	0.024072155
117	0x3c9b5b20	0.01896435
118	0x3cb0ff81	0.021606209
119	0xbcc27039	-0.023735153
120	0x3bce7c93	0.0063014715
121	0x3d584875	0.052803475
122	0x3d206823	0.039161813
123	0xbc83ee60	-0.016104877
124	0xbc937891	-0.018001826
125	0x3d47e65b	0.04880367
126	0xbd2e12b7	-0.042498317
127	0xbccbda0d	-0.024884248
