models/rl_agent.pth (torch, 448609 bytes, 6 tensors)

net.0.weight f4 [256, 175]
00000000: 6335 653e 2d37 2b3f 1fc9 d3bd 4b89 80bc
00000010: 8ebd f43d 9b55 6a3c 7e1b 6b3b 8d87 813d
00000020: 1c15 9a3a 8206 db3d b682 eebb f56e 1f3d
00000030: ef05 003e 96bf 9abb 7f6e c1bf 1848 1abf
00000040: 3fd6 5dbd fe48 563e 7964 c4bd e5e3 26bc
00000050: b1ee 983c e9ee d53d 7484 8f3c 4812 5d3d
00000060: 6eda c03b 0eef 2e3e 2f10 ad3d 7ab1 e43d
00000070: e2f1 493c 21b1 933d 7bac 00be da51 ceba
00000080: 4050 ea3c 632d 443e 4e40 033e 0cae 07bd
00000090: 9c7c aa3d 3387 8f3d 3a29 03be ff0d 98bd
000000a0: 8387 043d cbdb 92bc d825 163d a02d dc3d
000000b0: 73a6 31bd 530c 29bd 98db b13c 11ca 70bd
000000c0: 195e 893d 20db 483b 2d59 50bc bfe3 3bbd
000000d0: fa99 743d 2b6b 533d 1383 453d 8cda 913e
000000e0: 685c 27bf f6e9 1dbf e1a4 9cbe 7df6 15be
000000f0: c288 a4be 97b1 bfbe d2ec ffbd 382f 5e3e
00000100: 4ca6 a1be 8554 f63d 4dde 903e 7525 353d
00000110: 331d 70be 5ae8 cd3d c02f ecbe 16c8 9bbd
00000120: 4b61 b2be b195 74bc 91ca 2e3e ecb2 dcbd
00000130: 960f d43d 4d18 73be f310 3c3d eeda 85be
00000140: 8261 023d 9615 053f 820b b53e b816 143e
00000150: 8391 203f 231e 34bd 1cc3 723e 6bb3 8ebe
00000160: 1d16 863c ae58 afbe 03ba 393d 72e9 2ebe
00000170: 9499 103e 3092 7d3e e010 92be 8de9 e7bd
00000180: 7f7a 363f 58a8 c7bb c83d 0abd 45e5 86bd
00000190: ccd9 8e3b 8e29 6bbe 0906 81be f0a6 99be
000001a0: cab6 413c 6e64 09be 4fe9 18bf a5be 85bd
000001b0: 094e 33bf 356c 893e 18f9 333e 3e8e 633d
000001c0: 62a9 0ebf c9a2 1fbf 480b c33e 6933 a63d
000001d0: 2ef5 e6bd 13ff 4c3e 690a 32be 0b05 3dbe
000001e0: 86b1 253e 07c7 06bf ef7f 9bbe 08ae ff3e
000001f0: 7af9 ae3d a1f0 de3d 7ed2 c5bd 1ed3 393e
00000200: 4d16 053e 5fbd 5b3e c397 d43e 00c7 64bd
00000210: f323 e93d 3f5b 01be 4384 113e 2b96 863e
00000220: 7a9f 4d3d 8d47 843e 4ab8 103e 44d7 33bd
00000230: 957b 8ebc 6c8e 493e 8d31 013d 1c2c c23e
00000240: 21bd fb3c 8782 833e d5c4 e3bd 9088 9dbe
00000250: ed65 893e 68b2 e73d ff59 9d3e 875d 303e
00000260: 75c9 333d a68b de3d 4849 053d 06b9 0cbe
00000270: d8f5 93be d9b2 35bf 4bb0 63be 3439 ca3d
00000280: 8e9e 0cbd e635 dcbe 693f c83c 76ac 32bf
00000290: b59e 80be 6dff 9fbe 5cd1 6fbd 9246 f4be
000002a0: 7ab2 b2be 930f d0bd d72a 77be 9322 62be
000002b0: 3bc3 81be f8ae 883d af76 17be f108 413f
000002c0: 03a6 7d3f 7a96 b9bf 8b8f 613d 4b08 253e
000002d0: 2be9 fc3e 0a98 41bd bcc3 17bd b0e7 963e
000002e0: 7536 353c 4fae f03b 3899 993d 9abb 5e3e
000002f0: ea2f b9bd 5d1b abbc 2b65 1a3f 78da 47bb
00000300: 1d0f c5bd dfca 95bd 5886 f13a 54da c03d
00000310: abc0 22be 3a9d 01bd 49c7 383e 223f 5fbc
00000320: 0db1 3d3e a917 afbd b67f 8f3c 953d 8cbd
00000330: 5768 3e3e 1e65 773e f739 1dbe 4554 13bc
00000340: 777f bebb 2075 4d3d 0e6f b03d 0020 a73b
00000350: 5346 a2bd 79aa 2cbd 8f65 ef3d f777 d63d
00000360: fe2c 26be 0512 a93b 1343 bc3d 4291 99bc
00000370: 6d88 933e 709d 1c3e af4b c03e 90a9 703d
00000380: f881 f4bb 075c c1bd c1bd dfbc 829a 223c
00000390: e0ad 273e 4f12 97ba c2c9 a3be cd85 00bd
000003a0: e422 a2be 2a47 01be 4760 a2bd b573 abbe
000003b0: 7076 ab3d ced0 7abd 26fe bc3e 5c8a 7c3d
000003c0: 750d cd3e c39b e13e 6151 c63d cd63 083f
000003d0: c687 92be 8ef8 a3bd f74b b53d 0c84 43be
000003e0: f287 543e c647 68be 17f8 6c3d 2cd4 e53d
000003f0: dafe 98be 13c6 113d e54d b03b 4a92 41be
0.22383647 0.66881067 -0.10341095 -0.015690466 0.11950217 0.0143026365 0.003587454 0.063246824
0.0011755559 0.10694601 -0.0072787656 0.038924176 0.12502263 -0.004722546 -1.5111846 -0.60266256
-0.0541594 0.20926282 -0.09589476 -0.01018617 0.018668504 0.10445959 0.017519213 0.053972512
0.005885414 0.1708338 0.084503524 0.111666635 0.012325736 0.07211519 -0.12565796 -0.0015740946
0.02860272 0.19157939 0.12817499 -0.03312497 0.083245486 0.07008209 -0.12808695 -0.074245445
0.032355797 -0.017927071 0.036657184 0.1075089 -0.04337163 -0.04127152 0.021711156 -0.058786456
0.06707401 0.0030648187 -0.012716574 -0.045871492 0.059717156 0.051615875 0.048220705 0.2848705
-0.65375376 -0.6168512 -0.30594543 -0.14644809 -0.32135588 -0.37440178 -0.12496342 0.216977
-0.31572187 0.120278396 0.28294602 0.044225175 -0.23448639 0.10054083 -0.4613018 -0.07606523
-0.34839854 -0.014928267 0.1706946 -0.10776314 0.10354535 -0.23739739 0.0459146 -0.26143593
0.031831272 0.5198606 0.35360342 0.14461792 0.62722033 -0.043974053 0.23707241 -0.2787126
0.016367966 -0.34247345 0.04534341 -0.1708124 0.14121085 0.24762797 -0.285285 -0.11323843
0.71280664 -0.006093066 -0.033750325 -0.065866984 0.0043594595 -0.2296507 -0.25199917 -0.30010176
0.011823365 -0.13417217 -0.59731 -0.06530503 -0.7004095 0.26840368 0.1757549 0.055555575
-0.5572721 -0.62357765 0.38094544 0.081152745 -0.11277233 0.20019178 -0.17386784 -0.18458955
0.16181001 -0.5264744 -0.30371043 0.49937463 0.08543678 0.1088574 -0.09659289 0.18146941
0.12996788 0.21458958 0.41522035 -0.055853844 0.1138381 -0.12632464 0.1421061 0.26286444
0.050200917 0.2583584 0.141328 -0.043906465 -0.017392913 0.19683236 0.031541396 0.37924278
0.030729832 0.25685522 -0.11121527 -0.3076825 0.26835576 0.11313325 0.30732724 0.17223178
0.043893296 0.108664796 0.03254059 -0.13742456 -0.288985 -0.70976025 -0.22235219 0.09874192
-0.034330897 -0.4300987 0.024444299 -0.69794405 -0.25121084 -0.31249562 -0.05854927 -0.4771009
-0.34901792 -0.101592205 -0.24137436 -0.22083502 -0.25344262 0.06673998 -0.14791368 0.7540427
0.9908144 -1.4499047 0.055068534 0.16116445 0.49396643 -0.047264136 -0.0370519 0.2947364
0.011060347 0.007344998 0.07499927 0.21751252 -0.09042342 -0.020887071 0.6031062 -0.0030495208
-0.09622023 -0.07314085 0.0018426878 0.09416643 -0.1589381 -0.031644084 0.18044771 -0.013625892
0.18524571 -0.08549435 0.017516952 -0.06847683 0.1859449 0.24159667 -0.15354143 -0.008992259
-0.005813535 0.050160527 0.08614932 0.0051002502 -0.079235695 -0.042154763 0.11689293 0.104721
-0.162281 0.005159619 0.09192481 -0.018746022 0.28815022 0.15294433 0.37557742 0.058755457
-0.0074617825 -0.09441381 -0.027312161 0.009924533 0.16374922 -0.0011525842 -0.31989866 -0.031377602
-0.31667244 -0.12624803 -0.0792852 -0.33486715 0.083721995 -0.061234288 0.3691265 0.061655387
0.4004933 0.4406415 0.096834905 0.53277284 -0.28619212 -0.080063924 0.0885238 -0.1909334
0.20754984 -0.2268363 0.057853784 0.11222109 -0.29881936 0.03558929 0.0053803795 -0.18903461

net.0.bias f4 [256]
00000000: 7510 a9be 6468 14bd 8197 b5bd 568d 33be
00000010: 200c 87be ab8a 85be c0eb a43e d5c7 a0bd
00000020: 882d 82be 064d a7be bbd9 9d3e f487 b2be
00000030: 52d7 5fbe 4169 2fbe ce56 b2be 1d52 ebbd
00000040: 3458 3abe 9517 a3be d4bf 273e d218 cdbe
00000050: c2f0 7c3e 2433 19bd 8d52 10be b93c 163f
00000060: 137c 56be 839f be3d bebd 803f d71f 37be
00000070: 4e66 1c3e 3737 61be 927e 06be 01b5 88be
00000080: 2e13 18be 5360 7dbe ae91 013f c493 1e3f
00000090: f138 9a3e 19af b53e f948 45be caaf 7abe
000000a0: ba8e f6bc f92d 81be 1de6 41be cb15 cc3e
000000b0: 194b 58be 1c7f 93bd cc92 9b3e b0d4 4cbe
000000c0: 421c 60be deb5 6d3e 8638 73be 60c1 293f
000000d0: bbfd 2dbe 2a4b 2cbe 0b1b 78be 02fc b4be
000000e0: 6cb3 e23e b8e6 b7bc c567 3b3f 6547 0ebe
000000f0: dd5d 4d3e 3046 47be f8ad 69be d3d6 59be
00000100: a135 68be 11cf df3e 3ae4 e03e 59fd 3cbe
00000110: 7bb8 873e 9120 1c3f dae7 d8be c17d bebe
00000120: 4e66 8abe 19ff 103e 3d01 903e e088 033f
00000130: 9a5e acbc ef8d 0f3e 3782 8bbe c980 253f
00000140: 8b56 7fbe 29d0 1cbe c141 6dbe 59bc 3ebe
00000150: 5034 acbe 25fa 84be 2d40 b4be 0ee4 9c3e
00000160: e686 90be 18a8 92be c5ee ba3e 2c28 81be
00000170: dbb8 9e3e d90a cbbd df0f 96be fb70 62be
00000180: 2e83 edbe 4733 dabd 514b 963d bbc8 c6bd
00000190: b4bf a0be b506 823e 10a6 2cbe c49d 68be
000001a0: 9427 e3be bb7d 423e 8471 9ebd ebfe 11bc
000001b0: 6cef 2abe ddc4 59bd 4873 99be c941 97be
000001c0: e1cb 01bf 022c 8ebe a12a 4bbe c837 9fbe
000001d0: 6ab1 a23e 2aba 12be abbb 0a3e 6a5d c23e
000001e0: f4e2 363f 917e 86be f7bb 6cbe 8380 64be
000001f0: a71c 043f 950c d5be 69e7 57be e95b 08be
00000200: 97ac 323e fc7b 8bbd 8744 b8be b443 d1bd
00000210: e798 c4bc 1fec 373f 1d5a 013f 78b9 aebd
00000220: 26f9 2e3f a097 74bd 808c 49be 31c8 d3be
00000230: 8860 9ebe e0ff cabe 4b2b 91be 9250 4cbd
00000240: 2666 d03e 192e ce3e 958a 99be e2b9 9cbe
00000250: b1cb 05be b0c4 17bf 21ef 83be 696e 83be
00000260: f05b 40be d562 42be ab96 983e b202 1fbe
00000270: 770c 063e e1f8 80be 56fc c53e 047a ef3e
00000280: cadb 173f d223 18be b6b2 f43e 45a0 bcbe
00000290: 5c3b f7be 0839 a1be 5b31 f33e 0e80 b8be
000002a0: 1535 65be 3f72 863e 82a6 6bbe 2a2e c9bd
000002b0: 67cf 0bbe 19e9 62be 3e63 de3d a4e9 5ebe
000002c0: 0c71 bfbd c524 f0bd d643 e1be e721 f53e
000002d0: 0049 03bf 6166 7fbe 2494 3abe 439f 1c3e
000002e0: 5a1a 69be 0186 83be eb1d 98be b36a 91bc
000002f0: ef53 0d3c 906c af3d 2013 80bd 08dc 96be
00000300: 7edd 9fbe 23d9 873e eac7 ec3e 13e0 d2bd
00000310: e5ba c0be e933 4fbe 0c98 1d3f b5a1 bbbe
00000320: 0eb1 39be e0e4 23be 5ede 8e3d 4158 dbbe
00000330: 2b79 8ebe 0dfe 98be 13f6 86be 0bf2 d9be
00000340: 3c08 9cbe 60bf 2ebe e6d0 1fbf 0562 3d3f
00000350: 34df babe 8b1f b0be 448c e0bd bf7e 96be
00000360: cd51 0f3f db1f 78bc d8d6 68be 1220 803d
00000370: 3d66 90be 83ab b83c 715d dabe f156 6d3d
00000380: 9929 a93c 4d80 ce3e 683d adbe 623b 19be
00000390: dd06 87be 83fb a6be 9562 183f 418d af3c
000003a0: 5d97 a9be c62c c63e 58a7 b1be d15c 0fbe
000003b0: 19ba 21be 378d 4abe aa54 69be 83c3 66be
000003c0: 4725 23be 5a75 96be ac07 033e a0ed b3be
000003d0: 9a47 70be 1be7 303f 966a 6e3e 29d9 773e
000003e0: 52ea 903d a454 9bbe 4a99 59be 7239 723e
000003f0: dffe a7be 6fd0 25be 08f2 d5be ed8c 33bd
-0.33020368 -0.036232367 -0.08866788 -0.17534384 -0.26376438 -0.26082358 0.32211113 -0.07850615
-0.25425363 -0.32675952 0.30830178 -0.3486935 -0.21859482 -0.17129995 -0.34831852 -0.11490271
-0.1819771 -0.3185393 0.1638177 -0.40058 0.24701217 -0.037402287 -0.1409399 0.58686405
-0.20945768 0.09307768 1.0057905 -0.1788324 0.15273401 -0.21993719 -0.1313422 -0.26700595
-0.14851066 -0.24743776 0.50612915 0.6194422 0.30121568 0.3548515 -0.19266118 -0.2448112
-0.030097354 -0.25230387 -0.18935438 0.39860377 -0.21122397 -0.072019786 0.30385435 -0.20003009
-0.2188578 0.23213908 -0.2375203 0.6631069 -0.16991322 -0.16825548 -0.24229066 -0.35348517
0.44277513 -0.022448882 0.73205215 -0.13894422 0.20055337 -0.19460368 -0.2282027 -0.21273355
-0.22676708 0.43712667 0.43924123 -0.1845602 0.26507935 0.6098719 -0.4236439 -0.37205318
-0.27031177 0.14159812 0.28125945 0.5138073 -0.021041203 0.14018987 -0.27247784 0.64649636
-0.24935357 -0.15313782 -0.23169614 -0.18626536 -0.3363366 -0.25972095 -0.35205212 0.30642742
-0.2822792 -0.2864387 0.36510292 -0.2522596 0.3100041 -0.099141784 -0.29308984 -0.22113411
-0.46389145 -0.106543116 0.07338584 -0.09706255 -0.31396258 0.25395742 -0.16860223 -0.22716433
-0.44366133 0.18993275 -0.07736495 -0.008910875 -0.16692895 -0.05316626 -0.29970765 -0.29542378
-0.5070172 -0.2776795 -0.1984048 -0.31097245 0.3177598 -0.14328828 0.13548152 0.37961894
0.71440053 -0.26268438 -0.23118578 -0.22314648 0.5160622 -0.41611162 -0.2108437 -0.13316311
0.1744865 -0.068107575 -0.35989782 -0.102179915 -0.02399869 0.7184467 0.50528127 -0.08531469
0.6834892 -0.059714913 -0.19682503 -0.4136367 -0.30933022 -0.39648342 -0.28353342 -0.049881525
0.40702933 0.40269545 -0.29988542 -0.30610567 -0.13065983 -0.59284496 -0.25768378 -0.25670174
-0.18785071 -0.18983014 0.2980245 -0.15528372 0.13090692 -0.2518988 0.3866908 0.46772778
0.59319746 -0.14857414 0.47792596 -0.36841026 -0.48287475 -0.31488824 0.47498593 -0.36035198
-0.2238353 0.26259038 -0.23012736 -0.09823258 -0.13653336 -0.22159232 0.10858773 -0.21768814
-0.09347734 -0.11725763 -0.43997067 0.47877428 -0.51283264 -0.24941398 -0.18220574 0.15295129
-0.22763959 -0.25688174 -0.29710326 -0.017751073 0.008625968 0.085656285 -0.06253648 -0.29464746
-0.31223673 0.2653285 0.46246272 -0.10296645 -0.3764259 -0.20234646 0.6156013 -0.3664681
-0.18133947 -0.16005278 0.06976007 -0.4284077 -0.2782682 -0.29881325 -0.26359615 -0.42567477
-0.30475032 -0.17065191 -0.6242813 0.7397769 -0.36498415 -0.34399065 -0.109642535 -0.29393575
0.55984193 -0.015144314 -0.22738206 0.06256117 -0.28203002 0.02254272 -0.42649415 0.057944242
0.020649718 0.4033226 -0.33835912 -0.14964059 -0.26372424 -0.32613763 0.59525424 0.02142966
-0.33123294 0.38706034 -0.34697986 -0.1400025 -0.15793647 -0.19780432 -0.22786203 -0.2253552
-0.15932189 -0.29386407 0.12795895 -0.3514223 -0.23464814 0.6910264 0.23282847 0.24203934
0.07075943 -0.30338013 -0.21249881 0.23654726 -0.3281164 -0.16192792 -0.41786218 -0.04383557

net.2.weight f4 [256, 256]
00000000: d2f9 e5bf 4ab8 163f 5a3f e5bf 82e2 d1bf
00000010: 1ccd d0bf 6e49 f9bf 3c0f 923e 875e e2bf
00000020: 5ca3 0d3e 5120 b8bf 9e14 903e 5341 e5bf
00000030: a080 d4bf 0ffc f8bf 2ac6 d0bf d519 dbbf
00000040: bf87 f3bf d698 bebf 1ce2 103f f499 adbf
00000050: d3ff 6d3e e2cb 7ebf a483 093f b545 923e
00000060: 9814 eebf 17cf af3e eb7d b33e 59d1 553c
00000070: 29d0 8a3e 6c2b e0bf 7c15 e3bf b783 d7bf
00000080: b78b f4bf 2612 d6bf d99a ca3e f7d9 4dbf
00000090: 2ce8 b13e fd61 48bf e98b dabf ad02 f9bf
000000a0: 5c11 eebf e3d3 e0bf 8d98 d9bf 51a0 573e
000000b0: b4f9 dabf c3f1 e7bf 53c0 433f 0e86 833e
000000c0: 2033 03c0 e01f c23e c252 81bf ddaa 873e
000000d0: 57a6 e7bf 055e ecbf 4a94 0ec0 1e1a e1bf
000000e0: 50cf 47bf 20a4 083f 646a 803e 943f d7bf
000000f0: 4e17 9c3e cbff 153f 7252 d6bf a471 d03e
00000100: 119e 2e3f 5a43 7e3e 24ca 8c3e a990 d9bf
00000110: d3bf a43e 5dad 36bf 3161 dc3e b3f7 98bf
00000120: 5518 e6bf ca54 9e3e 6367 863e 6c52 7a3e
00000130: 7e31 8f3e 2ff2 723e 4f6b e6bf 55eb 903e
00000140: dbfa c7bf cdd4 dabf f848 b9bf 19bb c8bf
00000150: 867f c8bf a629 dcbf 1a17 c7bf 310c cf3e
00000160: 41a9 f53e 29b5 a9bf 32a3 983e b346 e6bf
00000170: 2230 a03e 01bd 45bf 757d fdbf df2f fbbf
00000180: d94e 6ebf bfb5 e7bf 09a8 fc3e cd25 d8bf
00000190: 5c0b 523f 55ec 953e fe3c e7bf 6efd e8bf
000001a0: 4d16 c3bf 0dde b93e 8636 083f 374a 783e
000001b0: 2af6 debf de70 ecbf 2aaf e3bf 9c5b e3bf
000001c0: 08d5 3a3f 222d 8b3d d64f ecbf 7949 b6bf
000001d0: bc8d 993e c25d ccbf 2ee9 80bf a027 b93e
000001e0: 67ee 5f3e 74b1 67bf 76c3 cebf 26e8 f3bf
000001f0: b96c 38bf 6580 bbbf 969b 04c0 fdc8 e4bf
00000200: 7537 e83e 101a 273f 4752 c4bf f482 f0bf
00000210: 1a0c 8abf 6ea6 9d3e 9ca6 873e 5206 cdbf
00000220: 04dd 893e 209c dcbf 5dc7 a3bf f636 c5bf
00000230: 8195 d6bf cca9 edbf 3722 ecbf 8e33 383f
00000240: 238c c33e e44d 833e 50a6 0e3f d5f7 3b3f
00000250: 2922 fcbf 4ce1 553f 342c 04c0 cc19 e9bf
00000260: 8fd2 0d3f 8395 123f 248f bf3e 30f8 cabf
00000270: 026a f2bf 46db f2bf a641 763e 0b6b 8c3e
00000280: 95e8 3dbf f2d9 00c0 af35 d73e 9b91 c1bf
00000290: 093d 83bf a6d2 eebf 45fc 6d3e 0131 a4bf
000002a0: 5bb8 ca3e d7d4 41bf 4cc2 c5bf 63cb dbbf
000002b0: 3999 653f 6f04 27be 7256 053f 1e4a dbbf
000002c0: 3348 ed3e 01b8 e63e 4065 e0bf 5f0a 683e
000002d0: 6526 4b3f 6d70 ecbf d083 cabf f343 733e
000002e0: 3efe c3bf 75ac acbf 1b5d dfbf 2582 363f
000002f0: 8d6b ffbf 6b73 813e bb3c 24bf 29c0 d7bf
00000300: 3b42 dbbf bdb4 aa3e a3a4 c43e 1d54 5a3f
00000310: 03d3 2c3f 7e98 e1bf e273 993e 4b2f 84bf
00000320: 62dd ccbf 4cef 2e3f 7c51 723e 2520 0a3f
00000330: 0ce6 03c0 96d6 c7bf 9f1e c7bf 1e68 d8bf
00000340: 28a3 c1be dfad c8bf 848b 3e3f 00f9 6b3e
00000350: 8b38 d7bf e55a 70bf 475c dcbf c1b7 ddbf
00000360: 2fb3 28bf 6814 883e f478 f2bf 76a7 3b3f
00000370: 89d3 dfbf 2418 e03e 2475 eabf 7e41 8a3e
00000380: eb35 40bf b6fb 823e 972c eebf 9e55 ee3e
00000390: 2d40 f7bf ddd1 efbf d640 9a3e d4eb aa3e
000003a0: 8a35 ebbf ff54 813e f297 c3bf e949 7bbf
000003b0: c633 ddbf 75e7 d7bf 78c5 03c0 3dd2 d6bf
000003c0: 19ce ccbf 8b36 d8bf e53c 3a3f 4977 013f
000003d0: 2827 d3bf c2ee 813e b597 623e e2be a33e
000003e0: 760e 8c3e 0d3e c9bf 76b2 c2bf 063d 57bf
000003f0: 037a 97bf ee78 d5be 7e62 613e 166f 4ebf
-1.7966864 0.5887495 -1.7909958 -1.639725 -1.6312594 -1.9475534 0.28527248 -1.7685097
0.13831848 -1.4384862 0.2814073 -1.791056 -1.6601753 -1.9451922 -1.6310475 -1.7117258
-1.9025801 -1.4890392 0.56595016 -1.3562608 0.2324212 -0.9952985 0.5371649 0.28568807
-1.8600035 0.34337685 0.35057005 0.013050401 0.2711194 -1.7513251 -1.7740932 -1.6837071
-1.9105138 -1.6724288 0.39571264 -0.8041071 0.34747446 -0.7827452 -1.7073947 -1.9453942
-1.8599048 -1.7564663 -1.699968 0.2105725 -1.7107453 -1.8120655 0.7646534 0.25688213
-2.0499954 0.37914944 -1.0103381 0.26497546 -1.8097638 -1.8466192 -2.2278008 -1.7586095
-0.7805071 0.53375435 0.2508117 -1.6816278 0.3048653 0.58593434 -1.674391 0.407117
0.6820994 0.2483038 0.2749797 -1.6997272 0.321776 -0.7135828 0.430429 -1.1950592
-1.7976176 0.30924064 0.26250753 0.24445504 0.27967447 0.23725198 -1.8001498 0.28304544
-1.562343 -1.7096192 -1.4475393 -1.5682098 -1.5663917 -1.720021 -1.5553925 0.4043899
0.47980693 -1.3258411 0.29812008 -1.7990326 0.31286722 -0.7724152 -1.9803911 -1.9623984
-0.9308906 -1.810234 0.4934695 -1.6886536 0.82048583 0.2928187 -1.8065488 -1.8202341
-1.5241181 0.36302224 0.53208196 0.2424706 -1.7418873 -1.8471944 -1.7787831 -1.7762332
0.7298131 0.06795718 -1.8461864 -1.4241172 0.29990947 -1.5966113 -1.0071161 0.36163044
0.21868287 -0.90505147 -1.61534 -1.9055221 -0.720409 -1.4648558 -2.0719962 -1.7873837
0.4535481 0.65274143 -1.5337609 -1.8789964 -1.0784943 0.30791038 0.264943 -1.6017554
0.26926434 -1.7235146 -1.2795216 -1.5407398 -1.6764375 -1.8567443 -1.8447942 0.71953666
0.38192853 0.25645363 0.5572252 0.73425037 -1.9697925 0.835469 -2.065198 -1.8210998
0.5539941 0.57259387 0.37413895 -1.5856991 -1.8938601 -1.8973167 0.2404848 0.27425417
-0.74183017 -2.0133023 0.42033145 -1.512256 -1.0253001 -1.8658035 0.23240764 -1.2827455
0.39593777 -0.7571539 -1.544992 -1.7171444 0.89686924 -0.16310285 0.5208503 -1.7131994
0.46344146 0.4506226 -1.7530899 0.22660206 0.7935546 -1.847181 -1.5821476 0.2375639
-1.5311964 -1.349013 -1.7450289 0.71292335 -1.9954697 0.2528337 -0.6415517 -1.6855518
-1.7129587 0.33341017 0.38406858 0.85284597 0.6750948 -1.7624662 0.29971224 -1.0326933
-1.6005061 0.6833389 0.23663896 0.539553 -2.060916 -1.5612361 -1.555622 -1.6906774
-0.3781979 -1.5678061 0.74431634 0.23044205 -1.681413 -0.93888694 -1.7215661 -1.7321702
-0.6589841 0.2657807 -1.8943162 0.733024 -1.748643 0.43768418 -1.8316998 0.27003092
-0.7508227 0.25582665 -1.8607358 0.46549696 -1.931646 -1.873592 0.3012759 0.33383048
-1.8375714 0.2526016 -1.5280745 -0.9815965 -1.7281425 -1.686751 -2.0589275 -1.678291
-1.6000396 -1.6891645 0.7274917 0.5057264 -1.6496325 0.2537747 0.22128184 0.3198157
0.27354783 -1.5722061 -1.5210712 -0.8407749 -1.183411 -0.41693825 0.22010228 -0.80638254

net.2.bias f4 [256]
00000000: 5863 263f 12b8 3f3f 7710 3b3e b57d 2d3e
00000010: 7f38 863e 8e4b 8dbe 5f81 0fbf 7ce9 893e
00000020: 22cd 603e 4021 7b3e beb2 a9be 40f7 373f
00000030: 55ec 5d3f 4a85 2b3f 38cf e7be 2fac a53e
00000040: 8e96 d33e 5f4b c2bd f8bb 34be 7f8d cfbe
00000050: 14a9 d63e e77f a23f 8ff2 043f 3210 bf3e
00000060: 0e14 8e3e 67db 523e 2d51 053f 913e 30bd
00000070: c373 b4be c1d7 9c3e d1b4 f43e 559e 27bf
00000080: 94d0 cc3e 8425 cc3e d559 f83c bf6e edb8
00000090: abec 5d3e aec7 9d3e 4362 803e 41bf 353d
000000a0: 9742 1fbf aa3d 92be 8a84 f0be 95cf 0e3f
000000b0: eeaf fa3e 0e6b 253f 366e 0abf 85d2 13bd
000000c0: 73fe 95be 80c4 2fbf f7f7 f23e 5172 03bf
000000d0: c226 ac3e 2b50 9e3e e459 c53e 4f9d 463f
000000e0: 3d38 9dbe c8aa f63e 092f ae3e 3584 9f3e
000000f0: e2e4 243e e8ca 9b3f cfa0 cf3e ccf2 7abe
00000100: a528 f13e 4f84 e03e 1040 c93e 2300 a33f
00000110: 45e0 853e 3238 bc3e 3d2c ac3e 033f 04bf
00000120: 5820 413f 4444 c1be b979 d13e 5640 813e
00000130: 8dc0 913e de0d 753e b4c8 af3e 5308 753e
00000140: ca6a 1fbf e066 f7be 9c89 523f 937e cb3e
00000150: 1249 a73e 1127 c73d d15f 04bf da41 743f
00000160: eadb e3be d099 cd3d 957e 303f 266b 86bd
00000170: 7041 88be f26c 363f 38eb e03d 79c9 bd3e
00000180: 0356 423f cce7 6e3f f694 9a3e 8093 aa3d
00000190: 971e 413f 87c4 32bd c834 19bf 020b 5a3e
000001a0: 7446 2f3f f0f8 e23e 00f2 a63e c69c 07bf
000001b0: 689f 54be c510 463f c76e 7c3e 11ca 01be
000001c0: 76be 833f d0a9 d93e 6df7 9a3e e262 5d3f
000001d0: 30ca 793e 14ba be3e eefd 16bf 8a31 243f
000001e0: 417c 293e c586 d13e 734c 9abe c69e 653d
000001f0: 503a 10be a70e 353e b89a f5be 9b6d 393e
00000200: 94ae 563f c383 023f fd6a 773e 84a6 cf3e
00000210: f2b6 09be b2de 433f c797 0cbf 4bef 1ebf
00000220: 1d39 abbe dfdb adbe bbef 693f 9c25 e33e
00000230: 115f b33d dc5b d03e ce88 2abe e53a c23e
00000240: 5e08 7e3e 8b3d 513f b4de b33e a25c 70be
00000250: d7fb 0dbf 18f8 4fbe bad0 373e 48c6 e53e
00000260: f137 673e e8a0 9d3e 248f 883e 6fd7 6abe
00000270: 4191 603e 3291 ee3e d8f1 14bf a795 bd3d
00000280: 9faa 8d3e dfc7 3c3e 1fa2 d83e eec1 9f3f
00000290: 6520 0bbe fd8b d53e 0b3c 533f f1c3 203f
000002a0: 9476 c43e d9da 3a3e 10a2 73bc aaf7 07bf
000002b0: cb2e cabe b951 e23e 4fd4 7cbb 0c35 a63e
000002c0: 726c d53e babc 003e 018e e53a 6846 993e
000002d0: 7dcb d7be de9d e93e 0002 a33e a733 8c3e
000002e0: 4aa1 dabe c68f d1be 452b 493e d895 f93e
000002f0: aa6c 32bb 740f 283f 96ed 813e 7af1 3cbd
00000300: d9f2 18bf 1f43 de3c 310e 053f 6112 44bc
00000310: aa7b d43d 9e7b ddbe 7584 f5be d28f 1fbf
00000320: 0428 91be 61b6 453f 0360 aa3e 69b3 3f3f
00000330: 6924 303d 30b7 c43e e115 823f a4b3 943e
00000340: d5e7 a03f 3ec4 80be e314 df3d d3f4 35be
00000350: 16dc cb3e 6bf8 5c3f 1b93 0d3d dfec a33e
00000360: b71b 1740 c7c0 a43f 3c9f 923e 3583 07bf
00000370: 82bc 0dbf e823 b23e 6a31 8d3e 89e2 463e
00000380: 9ed8 b83e 7216 3ebe a96d cf3e bfbd f7be
00000390: aea1 b93e 0c2f 953f 56cd 19bf 040a bd3e
000003a0: b393 933f 5308 fe3e 8789 873f a4f9 853e
000003b0: b9cf e63e 1d76 1140 9a76 b13f 1e89 e43d
000003c0: acab 583e 0004 2f3e 254c c7be 83ed 8b3e
000003d0: 7329 4f3f dd70 373f ca14 d03e 687c bd3e
000003e0: d39f 3fbc 1464 c63e 866e 943e e5d3 06bf
000003f0: cfc7 d13e c9d6 cc3e cd64 d43e 023e 26bf
0.64995337 0.74890244 0.18268 0.16942485 0.26214978 -0.27596706 -0.5605678 0.26935947
0.21953252 0.24524403 -0.33144182 0.7186165 0.8668874 0.6700026 -0.45275283 0.32357928
0.41325802 -0.09487032 -0.1764983 -0.4053764 0.4192587 1.2695283 0.51932615 0.37317044
0.27749676 0.20591508 0.5207699 -0.043028418 -0.3524457 0.30633357 0.47794202 -0.6547597
0.40002882 0.39872372 0.030316273 -0.00011321669 0.21672313 0.30816406 0.25074968 0.044371847
-0.62210983 -0.2856267 -0.4697612 0.55785495 0.4896235 0.6461648 -0.5407442 -0.03608944
-0.29295692 -0.6865921 0.47454807 -0.5134631 0.3362332 0.30920538 0.38545144 0.77583784
-0.3070697 0.4817717 0.3402026 0.31155553 0.16102937 1.2171297 0.40552375 -0.24506682
0.47101322 0.43850943 0.39306688 1.2734417 0.26147667 0.36761624 0.336275 -0.5165865
0.7543998 -0.37747395 0.4091318 0.25244397 0.28467217 0.23931071 0.34332812 0.23928957
-0.6227232 -0.48320675 0.82241225 0.39745006 0.32672936 0.09724248 -0.51708704 0.9541298
-0.4450372 0.10039103 0.6894315 -0.06563406 -0.26612425 0.7125999 0.109823644 0.37067774
0.75912493 0.93322444 0.30191773 0.08328915 0.754373 -0.043644454 -0.5984616 0.21293262
0.6846688 0.4433055 0.32606506 -0.5297359 -0.20763934 0.7736934 0.24651633 -0.12674738
1.0292499 0.4251237 0.30266896 0.8647901 0.24393535 0.3725134 -0.58981216 0.6413809
0.16551305 0.40923133 -0.3013645 0.05605962 -0.14084744 0.1768137 -0.47969604 0.18108217
0.83860135 0.509823 0.24161907 0.4055673 -0.13448694 0.7651168 -0.54919094 -0.6208388
-0.3344201 -0.3395681 0.91381425 0.4436463 0.08758367 0.40695083 -0.1665375 0.37935558
0.2480788 0.8173453 0.35130847 -0.23472837 -0.554624 -0.20309484 0.17950717 0.4487784
0.22579934 0.30786824 0.26671708 -0.22933744 0.2193041 0.4659515 -0.58181524 0.092570595
0.27669236 0.1843562 0.4231119 1.2481058 -0.13586576 0.41708365 0.82513493 0.6279898
0.38371718 0.18247546 -0.014870182 -0.5311228 -0.39488825 0.44202974 -0.0038578694 0.32462347
0.416843 0.12571993 0.0017513634 0.29936528 -0.42147437 0.45628256 0.31837463 0.27383158
-0.4270118 -0.40930003 0.19645412 0.48747134 -0.0027225413 0.6564858 0.25376576 -0.046128727
-0.59745556 0.027131615 0.5197478 -0.0119672725 0.103751495 -0.43258375 -0.4795262 -0.6232883
-0.28350842 0.77231413 0.33276376 0.74883133 0.043003473 0.3842101 1.0162927 0.29043305
1.257075 -0.2514972 0.10892656 -0.17769174 0.3981635 0.86316556 0.03456412 0.32016656
2.3610666 1.2871331 0.2863711 -0.5293458 -0.55365765 0.3479302 0.27576762 0.19422354
0.36102766 -0.1856325 0.40513352 -0.48386952 0.36256164 1.1654983 -0.6007894 0.36921704
1.1529449 0.49615726 1.0588845 0.26167023 0.45080355 2.272834 1.3864319 0.111589655
0.21159238 0.1709137 -0.3892528 0.27329645 0.8092262 0.7165659 0.4064086 0.37008977
-0.01169582 0.3874823 0.28990573 -0.52667075 0.40972754 0.40007618 0.41483155 -0.64938366

net.4.weight f4 [2, 256]
00000000: 1660 40bb 90a6 00bc 0dc3 78bd f058 953d
00000010: 37c9 5f3d 2ac6 4d3b b846 88b8 5431 62bd
00000020: 015e 513c 1a75 6bbc 2a27 473c 6d09 4339
00000030: 0ac8 2e3d 24c7 d4bc ade1 aa3b c68b 8c3d
00000040: f2cf ed3c 26fc 9c3c 35a5 623d 366a 6b3d
00000050: dc46 babc 06d6 c13c 52f4 c5bd d233 55bd
00000060: 736e 5e3b 7db1 353d 79de 38be 9ca0 323d
00000070: fe45 f5bc da83 9bbc 10ec 3fbd e382 813d
00000080: 036c 07bd fc26 4ebd ed17 16bb 3c50 77bc
00000090: 2da1 3abb 4241 59bc fdd2 813c 052f 9a3c
000000a0: 40cb d93b b14c 32bd 3c0c b63b c7be 70bd
000000b0: ea7f 313d 5eec 0a3c 0b3c 20bd 6735 b63c
000000c0: b526 003d 0f2e 17bd 2c1c d4bc 04d7 3f3c
000000d0: e59d 313c 92e9 a53c 67f7 09bb 5c79 783d
000000e0: 503d cb3b 529c 113d d470 3ebd 6aff 013c
000000f0: 779d 243d b85b d83c 99b8 d2bc 4326 123d
00000100: 1214 203d 0844 1e3d fc2d 883c f8f2 02bd
00000110: ef9b 6a3c 2974 84bb 09bc 68bd 10ab c83c
00000120: 1d06 80bc 19e6 07bc c060 3a3d e3d8 2dbc
00000130: 0a2e 7abd ea8f cabb afb5 443d 7999 35bd
00000140: 3efb 22bd 860e 563d f24f 26bd 96ab 443d
00000150: 62ab a3bb 3741 3b3d 8f2b e9bc 1250 c43c
00000160: 7f9b c5bc bfcb cebc 273f 6fbd 9601 453d
00000170: 1893 22bd 4b60 163d 8734 8bbd ec71 9a3c
00000180: cad7 893c d35b 54bd 1342 8e3c fda2 073d
00000190: f79e ed3b 3b02 153d 1ad4 583c 9cb0 c7bc
000001a0: b7b1 49bd 92d7 043d 0fbc 2aba f924 4bbd
000001b0: 3a42 17bd 2016 c7bb d162 71bd 97d1 99bc
000001c0: b9b1 06bd 8254 e83a 6314 65bd 0aec 14bd
000001d0: e896 4f38 73dd 78bd 4109 29bd a469 a0bc
000001e0: 7830 2fbd c285 033d d3c6 0f3d a5ec b73b
000001f0: cf63 a3bb 0d1d 5bbc 0c13 78bc 7e74 25bc
00000200: 8722 60bb 5dfd ae3b b6fc a73c 0396 e7b8
00000210: 5647 bcbc 40b2 033d 19fe e1bc c6c6 4a3d
00000220: bd0b 473c 0c57 1fbd 037b e93c d30f fc3c
00000230: 4765 5839 350b 853c 8089 403d ff24 01bd
00000240: eb88 d53c 7c35 87bd 2807 1a3d d12c bd3c
00000250: 9e0c cb3b 031f 02bd 53df d3bc 323d 563d
00000260: 792f 0ebc 368b 41bd af00 d33c 21d7 093d
00000270: fb4a b53c c4d1 afbc e263 453d 033c f93c
00000280: fdde fdbc ef6f 993c a7d2 e33c 1fd7 f1bc
00000290: fa47 703d 1d84 3ebc b7a6 0f3d 1179 eb3d
000002a0: 88a9 00bd 7a65 473d d7dc 6cbd 5102 473d
000002b0: f762 e7bb f539 e03c 33e9 f6bc 7d2d 513d
000002c0: d769 81bc ce0a 3fbd c732 093d 8082 8b39
000002d0: 13b9 36bd 0aae afbc 878b 30bd bfa8 f9bc
000002e0: 8a16 95ba 8f4f bfbc 60ee 363d ddbc 0ebd
000002f0: 2d70 97bc d253 133e 41e2 20bd 218e 0f3d
00000300: ba19 9fbc a09a 233d dc5e c43c 31c9 18bd
00000310: c06f 1abc 9986 0f3d fed1 7ebd 5a3b 043d
00000320: d439 40bd f075 77bd 1542 1dbd e22e acbc
00000330: f0a9 5dbd 598a 0c3c ede5 413d e442 943c
00000340: 317d 6abc b077 12bd 9e99 ebbc b47e 11bd
00000350: 0928 12bd f0ec 4b3d c06f 3fbd da81 f7bb
00000360: a607 2b3d fdde e73c feb7 da3c 2901 2ebd
00000370: d9ac 1c3d baa9 453d 52d1 9bb9 4654 53bd
00000380: 59b2 ee3c 68c0 22bd 4a7a 6a3c b5f5 0b3d
00000390: ac8b 00bd 5ebd 5ebd 484a 14bd 966f 193d
000003a0: 07f5 e33c 9f2c 72bb 9d1c 933c fec4 583d
000003b0: 677f 85bc 3b3c 3abd a44c 2c3b 8d4c a5bb
000003c0: 8a54 c43c 9292 1a3b 4f02 053d 772b 173d
000003d0: f829 a5bc 1c49 713d a86b 48bd 329c 4e3d
000003e0: 283a 183d ee0d 3bbc 8232 353d 0bf0 c53c
000003f0: 1080 013d 7621 c93c 22ae b93c 7900 40bc
-0.0029354147 -0.007852212 -0.06073289 0.07292354 0.054635253 0.0031398633 -6.498158e-05 -0.055222824
0.01277876 -0.014371181 0.0121553335 0.0001860016 0.04267124 -0.025973864 0.005214891 0.06862597
0.02902982 0.019163202 0.055333335 0.057474338 -0.022738867 0.023661625 -0.09665741 -0.052051373
0.0033940345 0.04435872 -0.18053617 0.0436102 -0.029940601 -0.01898377 -0.046855986 0.06323793
-0.033061992 -0.050330147 -0.0022902444 -0.015094813 -0.0028477416 -0.013260188 0.015847677 0.018821249
0.0066465437 -0.04353017 0.0055556577 -0.05877569 0.04333488 0.008479206 -0.03911976 0.022242261
0.031286914 -0.03690916 -0.02589234 0.011708979 0.010840868 0.020252977 -0.0021052004 0.060662612
0.0062023774 0.03554947 -0.04649432 0.007934431 0.040189233 0.026410922 -0.025722789 0.03568102
0.03908164 0.0386391 0.01662349 -0.031969994 0.014319404 -0.0040421677 -0.05681995 0.024495631
-0.015627915 -0.008294606 0.045502424 -0.010610792 -0.061079063 -0.0061817067 0.04802483 -0.044335816
-0.039790384 0.052259944 -0.040603586 0.0480152 -0.0049947957 0.04571649 -0.028463153 0.023963962
-0.024121998 -0.025243638 -0.058409836 0.048097216 -0.03969106 0.036712926 -0.06797128 0.01885315
0.016826529 -0.051845383 0.017365491 0.033114422 0.007251616 0.03637908 0.013234163 -0.024376206
-0.049241748 0.032432146 -0.0006513008 -0.049595807 -0.036928393 -0.0060756356 -0.05893213 -0.018776698
-0.032884333 0.0017725381 -0.055927645 -0.036357917 4.949319e-05 -0.060758065 -0.04126859 -0.019581623
-0.042770833 0.032109983 0.035101723 0.005612927 -0.0049862633 -0.013373625 -0.01514126 -0.010098575
-0.0034200267 0.005340262 0.020506244 -0.0001104288 -0.022983234 0.032152414 -0.027586984 0.04950597
0.012148795 -0.038901374 0.02850104 0.030769264 0.00020637094 0.016240695 0.04700613 -0.031529423
0.026066264 -0.06601998 0.03760448 0.02309266 0.0061965724 -0.031767856 -0.025863325 0.052304454
-0.008678311 -0.047251903 0.025757162 0.03365243 0.02213048 -0.021462329 0.04819096 0.030424124
-0.030990118 0.018730132 0.027810408 -0.029521523 0.058662392 -0.011628178 0.0350711 0.11497701
-0.031411678 0.04868076 -0.057827797 0.048586193 -0.007061358 0.027371386 -0.030140495 0.05106877
-0.015797539 -0.046641164 0.03349569 0.00026609376 -0.044610094 -0.021445293 -0.043101814 -0.030475972
-0.0011374515 -0.023353366 0.044660926 -0.034848083 -0.018486107 0.14387444 -0.039278273 0.035047654
-0.019421447 0.039942384 0.023971014 -0.037301246 -0.009426057 0.03504047 -0.062211983 0.032283165
-0.04693015 -0.06041521 -0.0383931 -0.02101845 -0.054117143 0.0085779065 0.047338415 0.018098302
-0.0143120745 -0.035758674 -0.028759774 -0.035521224 -0.03568271 0.049786508 -0.046737432 -0.0075533213
0.04175534 0.028304571 0.026699062 -0.042481575 0.038250778 0.048257567 -0.0002971986 -0.05159404
0.029137777 -0.039734274 0.014311383 0.03416987 -0.0313832 -0.054379813 -0.036203653 0.037459932
0.0278268 -0.0036952866 0.01795798 0.05292224 -0.016296102 -0.045467597 0.0026290799 -0.005044526
0.023966093 0.0023585898 0.032472905 0.036906686 -0.020161614 0.058907613 -0.048930794 0.05044193
0.037164837 -0.011416895 0.04423762 0.024162313 0.03161627 0.024552088 0.02266604 -0.011718863

net.4.bias f4 [2]
00000000: 843a 8fbe 6e5e b2be
-0.2797433 -0.3483767
